deployment/bionicleg_model.tflite (tflite, 23376 bytes, 17 tensors)

dense_85/bias f4 [25]
-0.020370087 -0.59048325 1.1623111 1.1178694 1.123403 0.099000275 1.1051849 -1.2339351
0.042740293 1.1284231 -0.11768106 1.149812 0.1597531 0.3910512 -0.7159837 1.0852405
-0.739378 0.3153894 1.103661 0.15052517 -0.32741454 1.1322018 0.67262554 -0.1524353
-0.38211063
00000000: 2bdf a6bc e929 17bf 9cc6 943f 5816 8f3f
00000010: abcb 8f3f a8c0 ca3d b376 8d3f 96f1 9dbf
00000020: 7210 2f3d 2b70 903f c502 f1bd 0a2d 933f
00000030: 5196 233e dd37 c83e b54a 37bf 29e9 8a3f
00000040: e047 3dbf b87a a13e c344 8d3f 4523 1a3e
00000050: e1a2 a7be fdeb 903f 3031 2c3f 0018 1cbe
00000060: 01a4 c3be

dense_84/bias f4 [25]
0.60410726 0.4787204 1.6193554 -0.27261308 0.5218151 -0.3645017 0.58208764 0.4166972
-1.3378116 1.2977679 0.7338788 1.1809943 1.1209476 0.1462588 0.64658624 0.8087369
-0.54738104 -0.6929334 -0.39786822 1.1547872 -0.09904277 1.1529175 1.2645894 0.9447417
-0.94998723
00000000: c6a6 1a3f d71a f53e 0a47 cf3f f193 8bbe
00000010: ad95 053f f89f babe b203 153f 5659 d53e
00000020: 693d abbf 421d a63f 7bdf 3b3f d22a 973f
00000030: 367b 8f3f dec4 153e ad86 253f 6209 4f3f
00000040: 2a21 0cbf 1564 31bf 62b5 cbbe 11d0 933f
00000050: f0d6 cabd cd92 933f 11de a13f 98da 713f
00000060: 5d32 73bf

dense_83/bias f4 [25]
0.93031883 0.6521824 -1.6132575 1.1243439 0.9521284 0.0736136 0.43635708 0.3434877
1.0370318 1.3681415 -1.0222352 -0.17973101 0.32822394 -1.8060241 -0.43287992 -0.28149512
0.16033077 1.2359926 0.5563945 -0.79291147 1.3498839 -0.22006176 1.1793565 -0.7213683
-1.072733
00000000: 6029 6e3f 6df5 263f 397f cebf 80ea 8f3f
00000010: b0be 733f bac2 963d 326a df3e 9fdd af3e
00000020: 75bd 843f 431f af3f 9ad8 82bf 680b 38be
00000030: f80c a83e cc2b e7bf 70a2 ddbe 2120 90be
00000040: c02d 243e 0135 9e3f df6f 0e3f 3ffc 4abf
00000050: ffc8 ac3f df57 61be 27f5 963f 98ab 38bf
00000060: 514f 89bf

dense_82/bias f4 [25]
-0.1811804 -0.65549845 -1.1745644 0.8664244 1.5631052 -1.4725897 0.639564 1.1210636
-0.45961633 0.33927983 0.88233423 0.6243814 0.06451402 1.3086522 -0.7738508 0.17438783
0.11251331 0.7378212 0.679818 1.2421348 0.9751306 -0.109418124 -0.7445724 0.2603972
1.0875448
00000000: 5b87 39be bfce 27bf 2058 96bf fdcd 5d3f
00000010: d513 c83f d27d bcbf 77ba 233f 037f 8f3f
00000020: d552 ebbe 16b6 ad3e a8e0 613f 76d7 1f3f
00000030: ed1f 843d ea81 a73f 161b 46bf b992 323e
00000040: 616d e63d dae1 3c3f 8d08 2e3f 46fe 9e3f
00000050: 29a2 793f 9c16 e0bd 4c9c 3ebf c852 853e
00000060: ab34 8b3f

dense_81/bias f4 [25]
0.47836435 -0.5332533 0.7550174 0.753888 0.8056463 -0.8921818 -0.32710618 0.9311889
-0.83936745 -0.08046526 0.41662833 0.49837697 -0.011563594 -0.24738568 -0.33206916 0.7637143
0.32264826 0.42152694 0.36944753 -0.12574582 -0.18729472 -0.29917324 -0.10641653 0.35356107
1.3203589
00000000: 2cec f43e 4a83 08bf d248 413f cefe 403f
00000010: d63e 4e3f 0766 64bf 767a a7be 6562 6e3f
00000020: c9e0 56bf f8ca a4bd 4f50 d53e 442b ff3e
00000030: 3b75 3dbc ac52 7dbe f804 aabe c882 433f
00000040: 2732 a53e 61d2 d73e 3a28 bd3e 83c3 00be
00000050: 30ca 3fbe 3c2d 99be e9f0 d9bd f505 b53e
00000060: 8501 a93f

dense_80/bias f4 [25]
-0.17589001 0.04574434 0.73455614 -1.0337497 0.67263055 0.41575325 -0.31132334 0.60893995
-1.2519906 0.6443784 -0.06412754 0.70783806 1.1743004 1.2609893 -0.8849326 -0.7563691
0.27490953 0.4600859 -0.6036216 -0.869412 0.36205244 0.58758765 0.33962542 0.11053712
0.8275817
00000000: 831c 34be 6b5e 3b3d df0b 3c3f e951 84bf
00000010: 8431 2c3f 9cdd d43e c665 9fbe 7de3 1b3f
00000020: 3a41 a0bf fcf5 243f 4d55 83bd e034 353f
00000030: 7a4f 963f 1968 a13f f18a 62bf 68a1 41bf
00000040: f1c0 8c3e 6190 eb3e f286 1abf c991 5ebf
00000050: f05e b93e 256c 163f 62e3 ad3e 4961 e23d
00000060: 65dc 533f

dense_79/bias f4 [25]
-0.10028224 0.76610786 0.30144614 0.46834552 1.2276182 0.48133042 0.22858728 -0.5256313
1.4563148 -1.3373135 0.1568521 -0.19157177 -0.7381606 0.34023318 -0.6346057 -0.048949655
-0.04014083 -0.0097694 0.4112962 -0.44941524 -0.08425386 -0.31999433 -0.5617591 -0.21377458
0.0
00000000: c660 cdbd a51f 443f 2657 9a3e fcca ef3e
00000010: 9822 9d3f f170 f63e c912 6a3e c68f 06bf
00000020: 8668 ba3f 172d abbf d69d 203e 642b 44be
00000030: 18f8 3cbf 0b33 ae3e 8575 22bf 6f7f 48bd
00000040: b66a 24bd d50f 20bc 6a95 d23e c119 e6be
00000050: 4a8d acbd 4cd6 a3be 72cf 0fbf b9e7 5abe
00000060: 0000 0000

dense_78/bias f4 [25]
0.40405202 -0.37839556 0.10927111 0.37188375 -0.05838569 1.3709128 1.4028516 0.026189636
-0.0012094991 1.2104527 0.0 0.69270283 -0.8591132 0.0 -0.3724683 0.3341333
1.0986577 1.3578638 -0.2796314 -0.880581 -0.34003797 1.1543857 -0.49794668 0.13088791
-0.25975743
00000000: e8df ce3e 10bd c1be 88c9 df3d 8c67 be3e
00000010: d525 6fbd 127a af3f a490 b33f a68b d63c
00000020: 0e88 9eba 1df0 9a3f 0000 0000 f954 313f
00000030: d8ee 5bbf 0000 0000 2ab4 bebe 8513 ab3e
00000040: d1a0 8c3f 7bce ad3f d92b 8fbe c26d 61bf
00000050: 7519 aebe e9c2 933f def2 febe 7b07 063e
00000060: edfe 84be

sequential_20/dense_78/MatMul f4 [25, 6]
0.067540035 0.2310876 -0.031731676 -0.51070833 0.27914023 -0.4652527 0.38491434 0.12450264
-0.26914513 0.15575905 0.22617103 0.30620334 -0.43184802 0.28339252 -0.23388876 -0.078686014
0.031886473 0.32261676 -0.11700632 0.42085505 -0.1514127 0.08038497 -0.04831893 -0.16162015
-0.49123213 -0.44884288 0.52258635 -0.83345234 0.17926955 -0.1329996 -0.03000496 -0.30097222
0.23744093 0.34199706 0.12762651 -0.17635557 0.39355853 0.20966484 -0.46830285 0.14415398
-0.3839246 0.19270435 0.16765821 -0.025744766 -0.032476418 -0.37050503 -0.5748689 0.43584684
-0.48748565 -0.07242549 0.47031918 -0.29867244 0.42321822 -0.4596412 -0.28982842 0.2060215
0.10276684 -0.12484736 0.07705717 -0.52145284 -0.341579 -0.19462186 -0.010359913 0.041658193
-0.38657206 -0.3050945 0.57060343 0.30799496 0.22168167 -0.23077783 -0.32670963 -0.19347878
-0.12735477 0.15957387 -0.35040748 0.10621001 0.25165656 -0.119203344 0.07840812 -0.0054093897
-0.36607862 -0.13443965 -0.10307518 -0.25760296 0.083616555 -0.041870512 -0.22755761 -0.24447678
0.450942 -0.09439827 -0.10302125 -0.13769197 0.2967411 -0.03909138 0.2671514 -0.015388824
0.34451905 0.013349409 -0.26312003 -0.24528812 0.34051162 -0.5870877 -0.55012757 0.36127943
0.22764495 0.037755605 -0.50874716 0.2604842 0.2869323 0.23924698 0.43385372 0.43671638
-0.10717158 -0.35550204 0.37308306 -0.8468587 0.07702756 0.17725535 0.22344387 -0.045171715
-0.51443106 -0.13096441 0.5788269 -0.35759777 -0.20507592 0.20133412 -0.723136 -0.042652734
0.30882728 0.34853834 0.16037863 0.11874597 -0.47384658 0.46045735 0.110381305 -0.13533412
0.4671925 -0.46691912 -0.041539527 0.10501858 0.15728047 -0.6000612 0.03307242 0.16644955
-0.46995553 -0.010810493 -0.6150153 -0.23857713 -0.23636867 0.58564144
00000000: 6e52 8a3d 3aa2 6c3e 13f9 01bd c8bd 02bf
00000010: 78eb 8e3e 9a35 eebe 7e13 c53e 3dfb fe3d
00000020: 64cd 89be 4d7f 1f3e 6199 673e afc6 9c3e
00000030: 2f1b ddbe d318 913e 8980 6fbe 2226 a1bd
00000040: 649b 023d 062e a53e 02a1 efbd 507a d73e
00000050: ee0b 1bbe e0a0 a43d 12ea 45bd c17f 25be
00000060: c782 fbbe bcce e5be 38c8 053f 225d 55bf
00000070: 7092 373e 0c31 08be f6cc f5bc 0819 9abe
00000080: b723 733e 3d1a af3e 86b0 023e 8e96 34be
00000090: 8180 c93e 61b2 563e 64c5 efbe 1a9d 133e
000000a0: c491 c4be 4a54 453e 98ae 2b3e b0e6 d2bc
000000b0: fe05 05bd d6b2 bdbe 9c2a 13bf 5127 df3e
000000c0: b897 f9be d153 94bd adcd f03e 98eb 98be
000000d0: 0fb0 d83e 1756 ebbe 6464 94be 4df7 523e
000000e0: 6c77 d23d f9af ffbd 26d0 9d3d ef7d 05bf
000000f0: 71e3 aebe f44a 47be a0bc 29bc c8a1 2a3d
00000100: c6ec c5be 5935 9cbe 1113 123f 84b1 9d3e
00000110: 8500 633e 0651 6cbe 7c46 a7be 4d1f 46be
00000120: 4a69 02be 5567 233e 9c68 b3be a284 d93d
00000130: 21d9 803e e220 f4bd 7094 a03d 4041 b1bb
00000140: a86e bbbe 8caa 09be 1419 d3bd 89e4 83be
00000150: 283f ab3d 6a80 2bbd dd04 69be 1f58 7abe
00000160: dfe1 e63e e153 c1bd cefc d2bd 20ff 0cbe
00000170: 73ee 973e 481e 20bd 11c8 883e 6821 7cbc
00000180: cd64 b03e 7bb7 5a3c abb7 86be cf2c 7bbe
00000190: 8a57 ae3e 614b 16bf 29d5 0cbf 9ef9 b83e
000001a0: c21b 693e 9fa5 1a3d 413d 02bf 2f5e 853e
000001b0: cae8 923e 29fd 743e 1322 de3e 4a99 df3e
000001c0: c67c dbbd 5d04 b6be be04 bf3e bbcb 58bf
000001d0: a0c0 9d3d 6d82 353e 78ce 643e fa05 39bd
000001e0: c1b1 03bf 891b 06be 002e 143f 0e17 b7be
000001f0: 6cff 51be 882a 4e3e 711f 39bf a2b4 2ebd
00000200: 9c1e 9e3e 9e73 b23e 4c3a 243e 1631 f33d
00000210: 059c f2be 11c1 eb3e 980f e23d 0795 0abe
00000220: db33 ef3e 0610 efbe 5a25 2abd fb13 d73d
00000230: 220e 213e 9c9d 19bf f276 073d c071 2a3e
00000240: 039e f0be 7e1e 31bc a571 1dbf 904d 74be
00000250: a10a 72be 99ec 153f

sequential_20/dense_79/MatMul f4 [25, 25]
0.0009136018 -0.41190797 -0.3746478 0.28018034 0.3584837 -0.2438457 0.6742994 0.7430649
-0.09617721 -0.18886343 -0.20049962 0.07351179 -0.13181151 -0.049951702 -0.036726557 0.16538256
-0.12769961 -0.3858268 -0.51676214 0.3281718 0.2682043 0.039374992 -0.10607581 0.021271188
-0.3177719 -0.7139229 -0.2584332 -0.25782228 -0.18009695 0.24767913 0.2236472 0.5836726
-1.4231352 0.026213536 -0.090838805 0.078296065 0.024065243 0.2517386 0.2971934 0.6012437
0.09149773 -0.15922779 -0.51540947 0.44579774 0.14722021 0.12511736 0.1749474 0.26205558
-0.45722532 -0.5903799 0.15884976 -0.12762186 -0.043549266 -0.017887428 -0.346866 -0.0031678057
0.551203 -0.30773416 -0.2702068 0.31648192 -0.3236842 -0.01653054 0.008257124 0.29906118
-0.28127933 -0.42405173 -0.6807445 0.21928278 0.20260322 -0.010526055 0.18805929 0.2205413
0.23419935 -0.20020325 0.3956497 0.15223816 -0.37455723 0.03624512 -0.29947627 -0.6466989
-0.024221364 0.115842454 0.25200987 0.4656904 -0.7160702 -0.30320063 -0.75620246 -0.11922894
-0.33282086 -0.17098086 0.037991524 0.6191218 0.25967234 0.2642687 0.3463759 0.40666288
0.21397546 0.09701946 -0.22682832 -0.84725076 -0.37221876 0.028366841 -0.0760386 0.06553311
-0.3331424 0.17618951 0.55553323 0.08560153 -0.02976678 -0.27171084 -0.17635946 0.3021086
0.008631575 0.16625977 0.085754685 0.19789515 0.057474926 0.31153876 -0.14296632 -0.29596412
-0.06314722 -0.06374744 -0.28925315 0.44367704 0.19597371 0.1871636 -0.2177424 -0.2605176
0.39740098 -0.39590207 -0.3193359 0.17607193 0.22052857 -0.4825395 -0.40702394 0.2894262
-0.5799255 -0.19152085 0.12913358 -0.06673323 -0.4585017 0.03814861 0.17515765 -0.10304956
0.05168769 0.3526921 0.3397251 -0.012921952 0.29694012 -0.26273993 0.95639735 -0.3115221
0.13033524 0.07942029 0.0018199316 -0.06758209 -0.027942015 0.31293118 0.4117239 1.2190629
-0.1628445 -0.13933535 0.2522478 0.23056567 0.060792025 0.019713515 -0.9875227 -0.504388
-0.07436975 -0.73658365 -0.17965072 0.35330895 -0.17452306 -0.13516632 0.25912768 -0.1612634
-0.48866802 0.22631529 0.014513938 0.13461751 -0.31131393 0.18152145 0.3063085 0.18252553
0.6608112 -0.05856037 0.21181583 -0.2847781 0.3004009 -0.07819361 -0.18334192 -0.10217954
0.17227383 -0.22372475 0.35054272 0.53021026 -0.013845482 0.44842494 0.009971021 0.7143604
0.46991718 -0.36489704 0.32010755 0.2727928 -0.23614754 0.09770919 0.21442963 -0.041709367
-0.02123662 -0.37784997 -0.20517847 0.09886355 -0.3329255 -0.23338524 -0.1935947 0.05134266
0.064608335 0.5142434 0.21234648 0.17839105 -0.6982768 0.23482133 0.4010834 0.22799546
-0.2017482 0.80179614 -0.12623271 0.0842132 0.22277722 0.6214976 -0.5455156 -0.30977532
-0.65498376 0.22641167 0.26192892 0.2746721 0.050166298 0.37696218 0.22716796 0.15958063
-0.08147844 0.22957666 -0.372513 0.27220774 0.33372337 -0.3488317 -0.016589953 0.38947147
0.0009247456 0.051582333 0.6282823 0.12109837 0.07189727 -0.13403907 -0.34766105 -0.2509948
00000000: c77e 6f3a 9ae5 d2be d6d1 bfbe cc73 8f3e
00000010: 2d8b b73e b0b2 79be e39e 2c3f 8039 3e3f
00000020: 8ff8 c4bd 6a65 41be c64f 4dbe 598d 963d
00000030: 99f9 06be 289a 4cbd 966e 16bd 0c5a 293e
00000040: b0c3 02be 178b c5be 864a 04bf 2206 a83e
00000050: 1352 893e ac47 213d 463e d9bd ea40 ae3c
00000060: 00b3 a2be a7c3 36bf 5b51 84be 4801 84be
00000070: 566b 38be 999f 7d3e c603 653e 916b 153f
00000080: 4b29 b6bf c5bd d63c b209 babd b059 a03d
00000090: 7924 c53c e2e3 803e bc29 983e 1beb 193f
000000a0: 2963 bb3d 9c0c 23be e0f1 03bf 9a3f e43e
000000b0: e5c0 163e c41e 003e 6925 333e 262c 863e
000000c0: 7019 eabe 2323 17bf 83a9 223e 4eaf 02be
000000d0: b760 32bd a888 92bc 6c98 b1be f69a 4fbb
000000e0: a41b 0d3f 558f 9dbe 8c58 8abe eb09 a23e
000000f0: efb9 a5be 0e6b 87bc e348 073c 8c1e 993e
00000100: d803 90be 4f1d d9be 4645 2ebf aa8b 603e
00000110: 3877 4f3e 7975 2cbc 9d92 403e 94d5 613e
00000120: f4d1 6f3e 1502 4dbe 9992 ca3e 52e4 1b3e
00000130: f7c5 bfbe c375 143d f454 99be 0f8e 25bf
00000140: e26b c6bc cf3e ed3d 7007 813e f96e ee3e
00000150: 6050 37bf 1d3d 9bbe 7c96 41bf 4d2e f4bd
00000160: 7f67 aabe 9b15 2fbe 009d 1b3d c47e 1e3f
00000170: c6f3 843e 3a4e 873e 2f58 b13e 1e36 d03e
00000180: 621c 5b3e 23b2 c63d af45 68be 6de5 58bf
00000190: 7593 bebe 9461 e83c 20ba 9bbd 3936 863d
000001a0: a491 aabe 066b 343e 6d37 0e3f db4f af3d
000001b0: 76d9 f3bc af1d 8bbe 9397 34be faad 9a3e
000001c0: 736b 0d3c 0040 2a3e 27a0 af3d 07a5 4a3e
000001d0: d46a 6b3d 0282 9f3e c365 12be 9c88 97be
000001e0: 5453 81bd 058e 82bd fd18 94be a329 e33e
000001f0: 55ad 483e d1a7 3f3e ddf7 5ebe 9062 85be
00000200: 2478 cb3e adb3 cabe ff7f a3be 334c 343e
00000210: 3ed2 613e 6b0f f7be 7165 d0be ac2f 943e
00000220: ff75 14bf 0b1e 44be 983b 043e 6fab 88bd
00000230: bcc0 eabe b841 1c3d 875c 333e a60b d3bd
00000240: 79b6 533d 0f94 b43e 73f0 ad3e 98b6 53bc
00000250: 8908 983e d985 86be 75d6 743f d37f 9fbe
00000260: 9a76 053e 1ba7 a23d c58a ee3a 7b68 8abd
00000270: a7e6 e4bc 8438 a03e 7acd d23e 410a 9c3f
00000280: b5c0 26be edad 0ebe a026 813e 6819 6c3e
00000290: 0f01 793d 3d7e a13c 4ace 7cbf 921f 01bf
000002a0: 2b4f 98bd bf90 3cbf 5cf6 37be e9e4 b43e
000002b0: 2cb6 32be 0a69 0abe 62ac 843e 3c22 25be
000002c0: b232 fabe 32bf 673e decb 6d3c 2cd9 093e
000002d0: 8a64 9fbe c2e0 393e 78d4 9c3e f9e7 3a3e
000002e0: ec2a 293f 00dd 6fbd 40e6 583e 6fce 91be
000002f0: 26ce 993e f923 a0bd fcbd 3bbe 8243 d1bd
00000300: 8d68 303e 1a18 65be 567a b33e dcbb 073f
00000310: 29d8 62bc f497 e53e 7e5d 233c 53e0 363f
00000320: fc98 f03e c9d3 babe 23e5 a33e 7fab 8b3e
00000330: a9d0 71be c11b c83d 7193 5b3e 71d7 2abd
00000340: 6cf8 adbc 8d75 c1be 4e1a 52be f978 ca3d
00000350: 3675 aabe 8afc 6ebe b03d 46be ae4c 523d
00000360: 6051 843d 75a5 033f 5b71 593e 25ac 363e
00000370: 45c2 32bf 0175 703e ce5a cd3e a477 693e
00000380: 1597 4ebe 8342 4d3f 2643 01be f877 ac3d
00000390: b61f 643e 771a 1f3f e9a6 0bbf df9a 9ebe
000003a0: 04ad 27bf 76d8 673e 8c1b 863e d2a1 8c3e
000003b0: 2d7b 4d3d 3001 c13e b89e 683e 1b69 233e
000003c0: 2bde a6bd 2516 6b3e 06ba bebe d05e 8b3e
000003d0: cadd aa3e 129a b2be a7e7 87bc ce68 c73e
000003e0: a06a 723a ff47 533d 1cd7 203f 6c02 f83d
000003f0: e03e 933d 8a41 09be a100 b2be 6482 80be

sequential_20/dense_80/MatMul f4 [25, 25]
0.3978044 0.39157748 0.21523812 0.5446458 -0.071029596 -0.13707562 0.56865895 0.10806663
0.30769467 0.015350485 -0.5191954 -0.33971858 0.3364662 -0.29283717 -0.05087777 -0.065392606
-0.23187861 0.49828517 0.5632677 -0.0345418 0.2906733 -0.37743315 -0.046175905 0.46094942
0.02850476 1.0436292 -0.56241775 -0.38157764 -0.3646022 0.12744197 0.14390372 -0.08652183
0.19556633 0.11863794 -0.4867648 0.0691742 0.031046938 0.2785025 -0.11196406 0.25165352
-0.31739292 -0.07981499 0.16260149 0.45359617 0.38823524 -0.0027101992 -0.92160475 -0.9916681
-0.4053418 0.06548387 1.0984163 0.26575643 0.07515696 0.19345234 -0.06083328 -0.50558233
0.010562018 -1.6418135 0.42981407 -0.27780142 0.17749096 -0.131832 -0.34663826 -0.13564841
-0.2065183 0.2226843 -0.3103989 0.016794967 -0.0998548 -0.041117307 -0.286254 0.20362931
0.6027251 -0.47117868 -0.2945202 0.18796165 0.036806036 -0.18658046 -0.16677013 -0.23338664
0.12303418 0.047572598 -0.18739831 0.11811263 0.059321888 -0.18767412 0.34973598 0.18764251
0.0832179 0.07665293 0.017678339 0.22987041 -0.050652977 -0.28242373 0.13528608 0.018658683
0.17224017 -0.1291236 -0.10394048 0.06541327 -0.37927833 0.3538478 0.08237896 0.16297327
-0.0022952235 0.37122148 -0.57408774 -0.31828764 0.004811022 -0.10946867 0.17673239 0.02327565
-0.41578496 -0.020960698 -0.60877264 0.29849043 0.21656145 0.03438246 0.7234612 0.27339393
0.22486325 -0.14942734 0.16958906 0.41283563 0.040338576 0.11115479 -0.96194583 0.11912858
0.25604483 -0.17659782 -0.325831 -0.822157 0.63685393 0.17446409 0.06962732 -0.3626193
0.07167926 0.20865583 -0.5478295 -0.14525157 0.20612258 0.08807886 0.28343013 -0.09256452
-0.1796088 0.17014232 0.022711871 -0.13351518 0.43001267 -0.030170023 0.25133544 -0.096912205
-0.35523897 0.37007636 0.086103484 -0.52083236 0.2707969 -0.068125695 -0.04515717 0.30356783
0.25423488 -0.39927456 0.37265757 0.21317458 -0.07832232 0.10754451 0.04818258 -0.21459022
0.17901485 0.024478067 -0.29927635 0.06324265 -0.5882702 -0.13183044 -0.11166772 -0.57811856
0.39957008 -0.41254947 0.55475974 -0.2354012 0.21873423 -0.57826626 0.4060176 0.316521
-0.08671542 0.008172528 -0.63114893 -0.6829678 -0.54256636 0.12763683 0.24291742 0.31963998
-0.37963828 -0.40127194 -0.013848614 0.263866 -0.11410156 0.2131096 0.051168468 -0.044967294
0.67723197 -0.5015292 0.31369457 0.109830014 0.13347471 -0.35398793 -0.5886313 0.2651657
-0.060094222 -0.100737825 -1.2131929 0.15641928 0.38598445 -0.22872 0.15213881 -0.15223865
-0.17194854 0.2679522 -0.32516986 -0.5023412 -0.082395524 0.036873307 0.34142387 0.3512803
0.03238526 0.17419988 0.168672 0.14897074 -0.7910999 0.09345933 -0.12517515 0.29860863
-0.030418232 0.5012423 -0.5527153 0.04125821 0.12913157 -0.020621238 -0.44172007 -0.15078208
-0.10016084 0.2881046 -0.54859793 -0.0023651598 -0.23174335 0.18064286 0.07786469 0.19372207
0.4451426 -0.14399731 0.38168177 0.13430569 0.10818169 -0.1846508 0.23242252 0.4414519
00000000: 05ad cb3e d87c c83e 6267 5c3e e86d 0b3f
00000010: f777 91bd 8d5d 0cbe a293 113f 0a52 dd3d
00000020: 288a 9d3e 9a80 7b3c fde9 04bf 98ef adbe
00000030: 4c45 ac3e c1ee 95be 3565 50bd 8fec 85bd
00000040: 9671 6dbe 3c1f ff3e 5032 103f b47b 0dbd
00000050: 21d3 943e eb3e c1be f222 3dbd 9001 ec3e
00000060: d082 e93c a495 853f 9cfa 0fbf 255e c3be
00000070: 24ad babe 2680 023e 7f5b 133e 5b32 b1bd
00000080: 8a42 483e 73f8 f23d 3c39 f9be 34ab 8d3d
00000090: 2656 fe3c e197 8e3e 6a4d e5bd bbd8 803e
000000a0: 5381 a2be 0b76 a3bd 0181 263e c23d e83e
000000b0: c5c6 c63e 999d 31bb 4aee 6bbf f6dd 7dbf
000000c0: f688 cfbe 681c 863d e898 8c3f 3a11 883e
000000d0: e4eb 993d 5f18 463e 512c 79bd d86d 01bf
000000e0: 500c 2d3c f226 d2bf 9710 dc3e fd3b 8ebe
000000f0: 31c0 353e f8fe 06be 927a b1be 6be7 0abe
00000100: 8979 53be 5a07 643e 9bec 9ebe 9995 893c
00000110: ac80 ccbd 9f6a 28bd e28f 92be 3484 503e
00000120: 314c 1a3f 553e f1be 5acb 96be 0579 403e
00000130: edc1 163d f30e 3fbe cac5 2abe e8fc 6ebe
00000140: 58f9 fb3d 7cdb 423d 58e5 3fbe 09e5 f13d
00000150: 82fb 723d a52d 40be 9810 b33e 5c25 403e
00000160: 256e aa3d 36fc 9c3d 2ad2 903c 2663 6b3e
00000170: 7f79 4fbd d899 90be 6f88 0a3e 18da 983c
00000180: ba5f 303e fa38 04be bfde d4bd 64f7 853d
00000190: c530 c2be 8a2b b53e 4db6 a83d 77e2 263e
000001a0: 766b 16bb be10 be3e 6af7 12bf 99f6 a2be
000001b0: c7a5 9d3b 1c31 e0bd 56f9 343e 93ac be3c
000001c0: c4e1 d4be c5b5 abbc 86d8 1bbf bdd3 983e
000001d0: 49c2 5d3e 9fd4 0c3d c134 393f 4afa 8b3e
000001e0: 8d42 663e 7b03 19be c1a8 2d3e 315f d33e
000001f0: 103a 253d 1fa5 e33d 1542 76bf aff9 f33d
00000200: 4f18 833e 0fd6 34be 52d3 a6be e278 52bf
00000210: dc08 233f b7a6 323e c598 8e3d 3da9 b9be
00000220: 93cc 923d e0a9 553e 8e3e 0cbf d4bc 14be
00000230: cc11 533e b062 b43d c11d 913e 7892 bdbd
00000240: 5feb 37be ca39 2e3e 3f0e ba3c 34b8 08be
00000250: 9f2a dc3e 2027 f7bc 0aaf 803e e879 c6bd
00000260: e2e1 b5be a67a bd3e 0657 b03d 4555 05bf
00000270: e4a5 8a3e 7c85 8bbd baf6 38bd 3e6d 9b3e
00000280: 132b 823e b76d ccbe f9cc be3e 704a 5a3e
00000290: 7467 a0bd 4c40 dc3d 195b 453d 8abd 5bbe
000002a0: ab4f 373e 3a86 c83c c03a 99be 5d85 813d
000002b0: e098 16bf 8ffe 06be 0cb2 e4bd 94ff 13bf
000002c0: 7394 cc3e af39 d3be bc04 0e3f 030d 71be
000002d0: defb 5f3e 4209 14bf 8ae1 cf3e 0a0f a23e
000002e0: db97 b1bd 11e6 053c fa92 21bf fad6 2ebf
000002f0: a1e5 0abf 3bb3 023e 58bf 783e daa7 a33e
00000300: f35f c2be 8473 cdbe 4ce5 62bc 7219 873e
00000310: 14ae e9bd 6739 5a3e 0796 513d a02f 38bd
00000320: 135f 2d3f 3864 00bf 939c a03e 8fee e03d
00000330: 98ad 083e e83d b5be 8ab0 16bf ccc3 873e
00000340: 5c25 76bd a24f cebd e849 9bbf 602c 203e
00000350: c19f c53e 9335 6abe 47ca 1b3e 73e4 1bbe
00000360: 4713 30be 0831 893e aa7c a6be 6f99 00bf
00000370: fcbe a8bd 7708 173d 1ccf ae3e 03db b33e
00000380: 68a6 043d 7461 323e 5ab8 2c3e c98b 183e
00000390: 8685 4abf 9b67 bf3d ea2d 00be 3be3 983e
000003a0: a82f f9bc 6a51 003f c07e 0dbf 5efe 283d
000003b0: 113b 043e dfed a8bc 2229 e2be 9e66 1abe
000003c0: 2021 cdbd 7282 933e ea70 0cbf cc00 1bbb
000003d0: 214e 6dbe 71fa 383e 8677 9f3d 145f 463e
000003e0: bbe9 e33e 0874 13be cb6b c33e 6e87 093e
000003f0: 5d8e dd3d 1915 3dbe 2b00 6e3e fc05 e23e

sequential_20/dense_81/MatMul f4 [25, 25]
0.26787695 -0.5425449 -0.31178638 0.41296166 -0.13329989 -0.57399374 -0.43985158 0.6705096
-0.06758984 0.48211086 -0.07048704 0.19403298 0.18693633 -0.114938684 0.14706632 -0.23325768
0.5671295 0.13998266 0.069644906 -0.28747335 0.13935871 0.13325575 -0.05333149 -0.17749055
-0.5977833 -0.25416133 0.16559847 0.5096082 -0.12184761 -0.6223849 -0.42665222 0.21966775
0.6001962 0.64852566 0.20611486 -0.09638935 0.10212409 0.21264343 0.07429903 0.44610935
0.13810544 0.08500196 -0.42012876 0.09175101 -0.2250524 -0.09080941 -0.5111306 0.12828238
0.31384718 -0.7436315 -0.07404281 -0.59652525 -0.70179623 -0.06722139 -0.09063747 -0.5092157
0.12181309 -0.94106764 -0.2057139 0.11456494 0.13280827 0.015845232 -0.06177913 0.27315146
-0.07782475 -0.28881088 -0.31005493 0.36611342 0.23809023 -0.656851 -0.50404096 -0.089013554
0.2956068 0.04692335 -0.18042275 -0.079790905 -0.39626852 0.3241347 -0.16821519 0.3030999
0.1656289 -0.079593174 -0.7155689 -0.4231839 0.87038875 0.2736965 0.18623719 -0.0972115
0.11816435 -0.2859321 0.37656572 0.25212818 -0.13128255 0.1079507 -0.23823993 0.3003183
-0.22694635 0.26640528 -0.16403471 -0.72877836 0.450985 0.2367794 -0.006046641 -0.221015
0.26394075 -0.014014911 -0.13949235 0.680957 -0.25102338 0.4328145 -0.18620677 0.33850253
0.10485821 0.18277118 0.016621372 -1.1352764 -0.32518888 0.09445556 -0.8935743 0.051939894
-0.44658634 -0.30517322 -0.019056518 0.13749525 -0.72989565 0.42612708 -0.0046286415 -0.55692565
-0.013826978 -0.26737654 0.13810259 0.33959216 -0.0024837514 0.803664 0.40343133 0.2650319
0.2616631 -0.2681112 0.22302198 -0.28937912 0.31020552 -0.04017803 -0.36693946 0.12702528
0.31759554 -0.11789378 -0.33534542 -0.018990355 0.005250853 0.42374203 0.5767853 -0.021440838
0.18881339 -0.2729675 0.31230953 -0.3777186 0.16066317 -0.32352713 -0.59653014 -0.39015496
-0.0156796 -0.18160956 -0.3050263 -0.34257296 -0.027359944 0.0026316824 -0.25300163 -0.15009864
0.30500108 0.2638064 0.03217936 0.30900362 -0.06448702 0.45908397 -0.5645304 -0.48714095
-1.228884 -0.3179778 -0.3030106 0.22576894 0.49634755 -0.078804344 0.20910673 -0.55684483
0.06851287 -0.06335633 0.30207002 -0.27680117 0.24734694 -0.56787634 -0.0042804168 0.22147395
-0.00090624776 0.33758137 0.22781983 0.12447988 0.31558445 -0.32926935 -0.13405287 0.13967521
0.44694483 0.2104289 -0.013936176 0.26998258 0.1902475 0.26004496 -0.17464812 0.24589378
0.2648523 0.19642416 0.11171468 -0.30799478 -0.011879125 -0.44744787 -0.9348568 -0.15188152
0.2953454 0.052462112 0.18072324 -0.62605745 0.47659042 -0.08616928 -0.55842173 -0.14739782
0.5077901 -0.2742813 -0.17433275 -0.16418765 -0.27539003 0.0726993 -0.012998946 -0.2624589
-0.14526029 0.08434707 -0.22276318 -0.18678284 0.18128048 -0.13817826 -0.28320956 0.13759643
0.25356117 -0.15431459 -0.15761104 0.1609728 -0.24406262 -0.35847458 0.0020600557 -0.37931174
0.050883446 -0.13805625 0.33438405 -0.35918793 -0.004268673 -0.2954775 -0.18766491 0.14144574
00000000: 2b27 893e 39e4 0abf 77a2 9fbe b66f d33e
00000010: c47f 08be 41f1 12bf 3a34 e1be 84a6 2b3f
00000020: 8b6c 8abd 3cd7 f63e 825b 90bd 95b0 463e
00000030: 3d6c 3f3e f964 ebbd 8e98 163e 1adb 6ebe
00000040: 662f 113f 9d57 0f3e fda1 8e3d b52f 93be
00000050: 0db4 0e3e 3274 083e 1f72 5abd 15c0 35be
00000060: 5408 19bf 6f21 82be a592 293e af75 023f
00000070: 3d8b f9bd 9e54 1fbf 2972 dabe 95f0 603e
00000080: 75a6 193f c705 263f c60f 533e c867 c5bd
00000090: 6f26 d13d 33bf 593e 172a 983d 7268 e43e
000000a0: 836b 0d3e 8215 ae3d 1e1b d7be f4e7 bb3d
000000b0: 2374 66be 49fa b9bd 74d9 02bf 755c 033e
000000c0: 94b0 a03e a25e 3ebf c2a3 97bd e1b5 18bf
000000d0: eba8 33bf 5eab 89bd 23a0 b9bd f65b 02bf
000000e0: 2479 f93d cfe9 70bf aaa6 52be 06a1 ea3d
000000f0: e4fe 073e dccd 813c 1d0c 7dbd 82da 8b3e
00000100: 9562 9fbd 05df 93be 85bf 9ebe 3873 bb3e
00000110: edcd 733e 6327 28bf d408 01bf bd4c b6bd
00000120: c659 973e b332 403d bec0 38be 6a69 a3bd
00000130: b5e3 cabe fcf4 a53e 9a40 2cbe e92f 9b3e
00000140: 9f9a 293e bf01 a3bd 862f 37bf 8fab d8be
00000150: ccd1 5e3f f321 8c3e f6b4 3e3e d316 c7bd
00000160: 2700 f23d b165 92be 39cd c03e f216 813e
00000170: ef6e 06be 4215 dd3d 2bf5 73be 52c3 993e
00000180: a064 68be 4666 883e b7f8 27be 3891 3abf
00000190: 82e7 e63e 4d76 723e e722 c6bb c251 62be
000001a0: 3e23 873e cc9e 65bc 15d7 0ebe 3353 2e3f
000001b0: 2386 80be dd99 dd3e fdac 3ebe 3450 ad3e
000001c0: e7bf d63d 5e28 3b3e 8b29 883c bd50 91bf
000001d0: 287f a6be eb71 c13d 49c1 64bf edbe 543d
000001e0: f7a6 e4be aa3f 9cbe 6a1c 9cbc 8ecb 0c3e
000001f0: 71da 3abf 542d da3e dcab 97bb ae92 0ebf
00000200: 8d8a 62bc 94e5 88be c46a 0d3e 06df ad3e
00000210: 6fc6 22bb edbc 4d3f 8d8e ce3e 43b2 873e
00000220: b5f8 853e df45 89be e05f 643e 8029 94be
00000230: 42d3 9e3e b891 24bd 7ddf bbbe ea12 023e
00000240: e29b a23e 4b72 f1bd 65b2 abbe a991 9bbc
00000250: 590f ac3b b7f4 d83e 34a8 133f b2a4 afbc
00000260: 4c58 413e 65c2 8bbe 09e7 9f3e 5564 c1be
00000270: e384 243e 59a5 a5be 33b6 18bf 64c2 c7be
00000280: 8172 80bc dbf7 39be 682c 9cbe b965 afbe
00000290: f621 e0bc 4e78 2c3b 6e89 81be 75b3 19be
000002a0: 1a29 9c3e a211 873e 81ce 033d b935 9e3e
000002b0: c511 84bd 0e0d eb3e 1085 10bf 8a6a f9be
000002c0: 124c 9dbf fccd a2be 3524 9bbe f92f 673e
000002d0: 4421 fe3e 2c64 a1bd 1320 563e 628d 0ebf
000002e0: 7a50 8c3d f7c0 81bd eca8 9a3e e2b8 8dbe
000002f0: 8448 7d3e 5860 11bf bd42 8cbb 11ca 623e
00000300: 4291 6dba 77d7 ac3e 9a49 693e 4fef fe3d
00000310: 4994 a13e fe95 a8be 2845 09be 0507 0f3e
00000320: f4d5 e43e ac7a 573e 8f54 64bc 283b 8a3e
00000330: 3ed0 423e 9d24 853e f5d6 32be 94cb 7b3e
00000340: b89a 873e 6a23 493e abca e43d 7eb1 9dbe
00000350: a9a0 42bc e317 e5be c652 6fbf d486 1bbe
00000360: 8337 973e 83e2 563d 830f 393e 4d45 20bf
00000370: a903 f43e 8579 b0bd baf4 0ebf 74ef 16be
00000380: 88fe 013f 996e 8cbe 4984 32be cf20 28be
00000390: ecff 8cbe 5fe3 943d 88f9 54bc 0361 86be
000003a0: 1dbf 14be 28be ac3d 081c 64be 0044 3fbe
000003b0: 97a1 393e 9a7e 0dbe d800 91be 14e6 0c3e
000003c0: c5d2 813e a504 1ebe ca64 21be 0ed6 243e
000003d0: 8deb 79be fb89 b7be 0002 073b 2635 c2be
000003e0: 296b 503d 9e5e 0dbe 6334 ab3e 7be7 b7be
000003f0: 39e0 8bbb d448 97be 3b2b 40be 27d7 103e

sequential_20/dense_82/MatMul f4 [25, 25]
0.019074086 0.25807023 0.1501222 -0.37876686 0.09636742 0.2104079 0.20219092 0.22830097
-0.58903295 -0.22525187 -0.47290832 -0.7687668 -0.22859332 -0.27479377 0.29138184 -0.36624607
-0.6080249 -0.07778346 -0.22014436 0.20050283 0.18934906 -0.90630084 0.22651517 -0.10001729
-0.91549075 -0.3881556 0.4516019 0.20798105 0.06788778 0.18941613 0.0802487 -0.0700311
0.20513237 0.07544526 -0.32474473 -0.049999185 -0.14570656 -0.241129 0.15995632 0.10059328
0.08270608 -0.18608226 0.18141322 0.25563148 -0.2605972 0.3749775 0.44063944 0.14180201
0.13334624 -0.406455 -0.4137465 -0.09041796 -0.017043725 -0.10926415 -1.0420443 0.021458354
-0.045775346 -0.5895021 0.19397525 -0.33236116 0.14356726 0.15074082 0.30292964 -0.2167638
-0.5148608 -0.56613946 0.33415008 0.13249636 -0.11758062 -0.23671636 -0.20712763 0.12405227
-0.24716596 -0.12370597 -0.08056073 0.13239504 -0.14681768 0.25973335 0.30380866 -0.30130583
-0.14372306 -0.2987959 -0.16798802 -0.33724156 0.2763055 -0.1478777 -0.0429736 0.33874503
-0.14122272 0.23692411 0.74859136 -0.15013418 -0.046533957 -0.1448205 -0.03211063 -0.27165923
0.26830265 0.13775106 0.43159628 0.27999568 0.06492708 0.13035318 -0.18369739 -0.01974869
0.3159676 -0.21969372 0.004565994 0.14649935 0.08133043 0.30837315 0.16008712 -0.33149302
0.05506817 0.12052241 -0.20178051 -0.33562356 0.39991102 -0.62094736 0.45370808 0.10028614
0.093063295 -0.051156227 0.17576566 0.28781724 0.11840649 0.1687395 -0.48439202 0.45336664
-0.410136 0.2614746 -0.0049280166 0.2751312 -0.43502918 -0.18033664 -0.0995089 0.23925604
0.12325675 0.39318317 -0.14474523 -0.21799116 -0.38191453 -0.17013657 0.31925 -0.08651801
-0.37817216 0.067944966 -0.14930665 0.17269623 0.25404775 -0.486788 0.31820688 0.09892447
-0.010139334 0.09645257 -0.19555442 0.10394147 -0.013099231 -0.6346899 -0.52526647 -0.29697624
-0.15960488 -0.8957473 0.12555711 0.04111413 0.223928 -0.08303087 0.11235379 -0.52447444
0.6859239 0.09932568 -0.032168247 -0.14009942 0.1966644 -0.81757396 0.17322138 -0.30665198
0.40252134 -0.23644342 -0.27955496 -0.11883687 -0.13798559 -0.17872982 -0.031492207 -0.010700748
0.30672967 0.3250484 0.1654883 0.08680238 -0.24803485 0.2293424 -0.81643325 0.5642712
0.373043 0.29141232 0.041029457 0.28853628 0.12590583 -0.2666301 0.09948871 0.21617721
-0.37373966 -0.06732329 -0.67579776 0.049501028 0.14585572 0.38467887 -0.16218099 -0.38509798
-0.36598974 -0.13183619 0.056044303 -0.25311673 0.030938033 0.14451669 0.24932714 0.3226781
0.22480892 -0.1576899 -0.043813724 0.55291325 -0.053869557 0.7242715 0.15102403 0.048437934
-0.017508442 -0.014252504 0.1057043 -0.1839475 0.3425596 0.48364785 -0.0635338 -0.19618984
0.6213555 -0.5904352 0.2400421 0.12166481 -0.065735616 0.021488363 -0.44852623 0.050578915
0.032030262 0.0037388606 -0.5245079 0.0043832967 0.48382378 0.022306807 0.25803494 0.1273486
-0.18093203 0.04172672 0.29764798 -0.1483007 0.56196064 0.23147786 0.2655268 -0.12225758
00000000: 4241 9c3c c821 843e a2b9 193e bbed c1be
00000010: 485c c53d 2b75 573e 230b 4f3e bbc7 693e
00000020: ddca 16bf 6da8 66be 0a21 f2be e7cd 44bf
00000030: 5e14 6abe c5b1 8cbe 0030 953e 9b84 bbbe
00000040: 85a7 1bbf ef4c 9fbd 866d 61be 9d50 4d3e
00000050: b8e4 413e 5503 68bf 98f3 673e ddd5 ccbd
00000060: 9a5d 6abf 55bc c6be 5d38 e73e fcf8 543e
00000070: c008 8b3d 4df6 413e 6e59 a43d 776c 8fbd
00000080: 380e 523e 0b83 9a3d f144 a6be f2cb 4cbd
00000090: 1a34 15be 85ea 76be 97cb 233e d903 ce3d
000000a0: ce61 a93d 598c 3ebe 63c4 393e 21e2 823e
000000b0: ff6c 85be 0dfd bf3e 7e9b e13e 8c34 113e
000000c0: eb8b 083e df1a d0be 95d6 d3be 0d2d b9bd
000000d0: 489f 8bbc e2c5 dfbd b561 85bf 6ec9 af3c
000000e0: ee7e 3bbd 9ce9 16bf 73a1 463e 3e2b aabe
000000f0: 4c03 133e cd5b 1a3e 9819 9b3e 54f7 5dbe
00000100: ebcd 03bf 84ee 10bf b815 ab3e 20ad 073e
00000110: 1cce f0bd c665 72be 4419 54be 1e0f fe3d
00000120: 1319 7dbe 8e59 fdbd 06fd a4bd 9192 073e
00000130: 6057 16be c5fb 843e cf8c 9b3e c244 9abe
00000140: 232c 13be c7fb 98be 0d05 2cbe edaa acbe
00000150: ea77 8d3e 406d 17be 1605 30bd fd6f ad3e
00000160: b09c 10be 3c9c 723e afa3 3f3f c6bc 19be
00000170: 649a 3ebd d34b 14be 7086 03bd eb16 8bbe
00000180: f75e 893e 9d0e 0d3e 30fa dc3e 985b 8f3e
00000190: 7df8 843d 4e7b 053e 2b1b 3cbe 01c8 a1bc
000001a0: 81c6 a13e 64f7 60be 559e 953b ed03 163e
000001b0: 9290 a63d 16e3 9d3e e1ed 233e 74b9 a9be
000001c0: 298f 613d 74d4 f63d 8d9f 4ebe dad6 abbe
000001d0: 23c1 cc3e 68f6 1ebf 6d4c e83e d262 cd3d
000001e0: f897 be3d 3189 51bd eafb 333e c85c 933e
000001f0: 1a7f f23d 0cca 2c3e 3b02 f8be ac1f e83e
00000200: 59fd d1be 00e0 853e 337b a1bb ffdd 8c3e
00000210: 25bc debe 2baa 38be 52cb cbbd 89ff 743e
00000220: 096e fc3d 4e4f c93e 1838 14be 1339 5fbe
00000230: 4d8a c3be 4838 2ebe bc74 a33e 5b30 b1bd
00000240: c89f c1be bb26 8b3d d8e3 18be 48d7 303e
00000250: 8c12 823e 473c f9be 03ec a23e ea98 ca3d
00000260: 731f 26bc ed88 c53d 6b3f 48be 44df d43d
00000270: 289e 56bc 0a7b 22bf dd77 06bf 450d 98be
00000280: 766f 23be b24f 65bf 0b92 003e 4a67 283d
00000290: 624d 653e 170c aabd be19 e63d f543 06bf
000002a0: b598 2f3f 436b cb3d dac2 03bd 3976 0fbe
000002b0: 6462 493e 874c 51bf f260 313e 7d01 9dbe
000002c0: 4717 ce3e 391e 72be d421 8fbe bf60 f3bd
000002d0: 184c 0dbe f304 37be f9fd 00bd 3152 2fbc
000002e0: ac0b 9d3e be6c a63e c475 293e 72c5 b13d
000002f0: d9fc 7dbe bcd8 6a3e c501 51bf 1474 103f
00000300: 7eff be3e ff33 953e 810e 283d 07bb 933e
00000310: 75ed 003e be83 88be bdc0 cb3d 8f5d 5d3e
00000320: ce5a bfbe cbe0 89bd 1501 2dbf 97c1 4a3d
00000330: 345b 153e a1f4 c43e c612 26be 902b c5be
00000340: 0263 bbbe 1100 07be b68e 653d 8498 81be
00000350: c271 fd3c 2ffc 133e 9d4f 7f3e 1036 a53e
00000360: 4f34 663e 7679 21be 0576 33bd b98b 0d3f
00000370: 53a6 5cbd db69 393f 0ba6 1a3e db66 463d
00000380: dd6d 8fbc 5683 69bc 7f7b d83d bc5c 3cbe
00000390: f963 af3e b1a0 f73e 021e 82bd fde5 48be
000003a0: 2711 1f3f c326 17bf 99cd 753e 662b f93d
000003b0: 65a0 86bd 5d08 b03c 3ba5 e5be d62b 4f3d
000003c0: 2a32 033d ac07 753b 2646 06bf c2a1 8f3b
000003d0: c0b7 f73e c4bc b63c 281d 843e ac67 023e
000003e0: 3f46 39be a3e9 2a3d 5165 983e 24dc 17be
000003f0: a7dc 0f3f 8808 6d3e 21f3 873e 2f62 fabd

sequential_20/dense_83/MatMul f4 [25, 25]
0.3968254 0.16273962 -0.27270707 0.015475242 -0.031309687 -0.338916 -0.06179342 0.42968866
0.23898922 0.20695005 0.42654198 0.43964666 -0.43670067 0.20617393 0.1328664 -0.36750028
0.05264006 -0.1762448 -0.15279813 0.15257807 0.10385042 0.14006047 0.060762413 0.08508659
-0.20682068 -0.3727792 0.07449893 -0.32535186 -0.16953476 -0.43087843 -0.24350728 0.044926584
-0.06428338 0.3103327 0.10769994 -0.13802303 0.048886098 -0.5649107 0.28887367 0.21334115
0.18099009 -0.012909717 -0.12975372 0.030499851 -0.19779801 0.14445214 0.66734034 0.06018311
0.3357827 0.13005544 0.30833218 0.1406607 -0.082816 -0.4735938 0.18338375 -0.25947714
0.3933615 -0.07259069 -0.051193703 -0.08058104 -0.113733836 -0.2094254 0.01646851 0.344502
-0.04546671 0.21258777 0.5124404 0.14029673 0.06831164 0.14930634 -0.2944235 -0.10265832
-0.099716514 0.30556276 -0.5673465 -0.7068429 0.28016305 0.37649128 0.13980748 0.11703361
0.047154535 -0.25958067 -0.22568369 -0.28352368 -0.1501008 0.42540684 0.20306492 0.4375552
0.2096034 0.13857763 -0.27261984 -0.77332544 -0.09720416 -0.24894288 -0.16307837 -0.08884817
0.18797095 0.031829767 0.28089088 0.311811 -0.7082585 -0.5587814 -0.15520313 -0.07699494
-0.13953626 -0.02970362 -0.039915483 0.11367262 -0.5006957 0.39605007 0.3456714 -0.4801416
-0.62709504 -0.05215879 0.340116 -0.014904409 -0.28779918 0.0522851 0.14440252 -0.454199
0.2903217 0.11830554 -0.19022074 -0.024149548 0.46117482 0.40134892 -0.35327142 0.07918755
-0.7677484 0.26238158 -0.2645551 0.09421937 -0.26420596 0.15636341 0.03297705 -0.81739134
-0.07108826 -0.715345 -0.25324577 -0.6718201 -0.47733206 -0.24032404 -0.012326343 -0.42490137
-0.12228943 -0.107573986 -0.017401712 -0.2843239 0.25499597 -0.21545243 -0.078779735 0.17260318
-0.2591169 0.17683764 -0.2593186 -0.008035566 0.12184525 0.45371813 0.37747738 0.13141593
0.2759509 0.61906254 -0.46604383 0.27342635 -0.056428604 -0.017682347 -0.41904303 -0.1357147
-0.016059598 -0.1508759 -0.33433294 -0.12749885 -0.56243575 0.07072034 0.3509253 -0.14412756
0.22693937 0.37666926 0.23692141 -0.15183967 0.14680278 0.08686925 0.19421642 0.13861519
0.2015649 0.19783418 -0.013239726 -0.14133678 -0.3905859 -0.13766316 0.34782934 -0.48589602
0.17331582 -0.20973633 -0.02714588 -0.4119807 -0.12654418 0.24561235 0.15427336 0.20693527
0.14809386 -0.08689072 -0.07580329 0.22478057 0.3431503 -0.5486161 -0.39300328 0.19712234
-0.5084976 0.014070228 0.20417157 0.002556039 0.34080827 0.29381448 -0.13287972 0.29970807
0.8116969 -0.17264314 -0.21578376 -0.23931932 -0.52584374 -1.0937089 -0.38591668 -0.51437896
-0.06535448 -0.18933502 0.17868668 -0.5681552 0.015441035 0.33550742 -0.5151298 0.26333597
0.13777976 -0.040862378 -0.12191842 0.04279217 0.46610683 -0.77200216 0.052457836 0.15384544
-0.28007555 -0.30606073 0.4198424 -0.22159402 0.21061395 -0.35418692 -0.19249715 -0.1744531
0.4306898 0.2530761 0.017307729 0.04912925 -0.19664787 0.3623725 0.15610632 0.40507638
00000000: b32c cb3e 37a5 263e 43a0 8bbe df8b 7d3c
00000010: 963e 00bd 6686 adbe 191b 7dbd 2700 dc3e
00000020: 97b9 743e b7ea 533e b663 da3e 5e19 e13e
00000030: 3b97 dfbe 421f 533e 210e 083e ff28 bcbe
00000040: 1b9d 573d 8479 34be 1d77 1cbe 6d3d 1c3e
00000050: 87af d43d 036c 0f3e 02e2 783d e141 ae3d
00000060: cdc8 53be eadc bebe e592 983d 8594 a6be
00000070: 859a 2dbe 199c dcbe f959 79be f004 383d
00000080: 01a7 83bd ede3 9e3e c991 dc3d e955 0dbe
00000090: ca3c 483d fd9d 10bf 40e7 933e 1a76 5a3e
000000a0: 7755 393e 4783 53bc 29de 04be d3da f93c
000000b0: 908b 4abe 43eb 133e d1d6 2a3f 9182 763d
000000c0: b6eb ab3e 412d 053e b7dd 9d3e 5c09 103e
000000d0: 6f9b a9bd e37a f2be f3c8 3b3e 30da 84be
000000e0: ae66 c93e 6daa 94bd 7db0 51bd ac07 a5bd
000000f0: 49ed e8bd 9d73 56be f8e8 863c 9162 b03e
00000100: 4d3b 3abd 9cb0 593e 4b2f 033f f2a9 0f3e
00000110: f9e6 8b3d c3e3 183e adbe 96be 863e d2bd
00000120: 2c38 ccbd b972 9c3e 9f3d 11bf a8f3 34bf
00000130: 8871 8f3e 77c3 c03e b129 0f3e 51af ef3d
00000140: 1d25 413d c2e7 84be a019 67be 042a 91be
00000150: 06b4 19be edce d93e 40f0 4f3e 3c07 e03e
00000160: 46a2 563e 4be7 0d3e d494 8bbe a8f8 45bf
00000170: fa12 c7bd e2ea 7ebe 04fe 26be 08f6 b5bd
00000180: 757b 403e ee5f 023d eed0 8f3e b1a5 9f3e
00000190: 6e50 35bf 4c0c 0fbf 92ed 1ebe 86af 9dbd
000001a0: 98e2 0ebe 0255 f3bc 6b7e 23bd 31cd e83d
000001b0: 982d 00bf 13c7 ca3e d7fb b03e 1fd5 f5be
000001c0: 4d89 20bf 75a4 55bd af23 ae3e 9f31 74bc
000001d0: 6a5a 93be e728 563d 41de 133e c58c e8be
000001e0: 0ca5 943e 2d4a f23d 3ac9 42be 46d5 c5bc
000001f0: 1b1f ec3e 9b7d cd3e fedf b4be 152d a23d
00000200: 298b 44bf e156 863e c473 87be 16f6 c03d
00000210: 0146 87be bb1d 203e f112 073d 8f40 51bf
00000220: b996 91bd da20 37bf 6ea9 81be 67fc 2bbf
00000230: de64 f4be 8117 76be 6ef4 49bc ac8c d9be
00000240: e172 fabd c04f dcbd 098e 8ebc e792 91be
00000250: d58e 823e 909f 5cbe 4557 a1bd e3be 303e
00000260: f8aa 84be ed14 353e 68c5 84be 9ba7 03bc
00000270: 018a f93d be4d e83e b744 c13e e691 063e
00000280: 7049 8d3e e27a 1e3f 4c9d eebe 8afe 8b3e
00000290: ae21 67bd 92da 90bc cf8c d6be cbf8 0abe
000002a0: 6b8f 83bc 367f 1abe b02d abbe 0f8f 02be
000002b0: cafb 0fbf d3d5 903d 7bac b33e 2d96 13be
000002c0: cb62 683e cbda c03e 879b 723e dc7b 1bbe
000002d0: 7853 163e 81e8 b13d abe0 463e 24f1 0d3e
000002e0: 0767 4e3e 0b95 4a3e 70eb 58bc 97ba 10be
000002f0: e0fa c7be 92f7 0cbe b016 b23e 5dc7 f8be
00000300: b479 313e 1fc5 56be 0961 debc 22ef d2be
00000310: cc94 01be ce81 7b3e d6f9 1d3e d7e6 533e
00000320: eba5 173e c3f3 b1bd c13e 9bbd e12c 663e
00000330: 65b1 af3e 1b72 0cbf ba37 c9be 70da 493e
00000340: e62c 02bf d086 663c 5a12 513e 3883 273b
00000350: 6c7e ae3e da6e 963e 9f11 08be 5673 993e
00000360: 5ecb 4f3f 5dc9 30be 6bf6 5cbe 2010 75be
00000370: b29d 06bf a7fe 8bbf df96 c5be 57ae 03bf
00000380: 92d8 85bd 0ae1 41be a4f9 363e 9f72 11bf
00000390: 65fc 7c3c a1c7 ab3e 8cdf 03bf f9d3 863e
000003a0: 2316 0d3e 4f5f 27bd 5db0 f9bd d846 2f3d
000003b0: 8ea5 ee3e efa1 45bf 07de 563d a989 1d3e
000003c0: 1066 8fbe feb3 9cbe 95f5 d63e 8be9 62be
000003d0: 2fab 573e fd57 b5be f91d 45be d5a3 32be
000003e0: 6083 dc3e 3193 813e f0c8 8d3c c13b 493d
000003f0: 0f5e 49be e388 b93e 56da 1f3e 2c66 cf3e

sequential_20/dense_84/MatMul f4 [25, 25]
-0.24426481 0.24076396 0.47078568 -0.7024619 -0.4473449 0.35106763 0.22883911 0.14293703
0.05422893 -0.22324155 -0.31133455 -0.17433327 -0.18425314 -0.13060893 -0.2975333 -0.78783274
-0.61521536 -0.91692495 -0.38205963 -0.0830815 -0.26020956 0.20227025 0.08323889 0.39899412
-0.2956735 -0.20501156 0.4894671 0.14529625 -0.3784408 0.09182124 0.18483475 -0.1363438
0.018697651 -0.58824867 -0.16926625 0.1806728 -0.84175336 -0.14130601 0.33069143 0.06425788
0.25664818 0.51100093 -0.23477146 0.47837183 0.090282775 -0.42824203 0.08458869 0.09100958
0.25463036 -0.53967345 0.06622078 0.17386246 0.13298264 0.30776367 -0.055193316 0.24437723
-0.29654953 -0.25629318 -0.7626845 0.09281788 -0.005244655 -0.103130005 -0.37144038 -0.5854482
-0.37593168 -0.402939 -0.051812835 0.21500131 -0.107021034 -0.30641913 0.19503562 0.21878907
0.18010724 -0.018944977 -0.32962817 0.045515675 -0.30467978 0.03773229 -0.22357161 -0.34668118
-0.14636886 -0.090691194 -0.22920915 -0.50648034 -0.1383828 0.084806874 0.33587554 -0.14302601
-0.32444656 0.10436605 -0.3018958 -0.011329218 -0.4382514 0.33002684 -0.53578645 0.2816767
-0.49886882 0.13160074 0.49159634 0.027336273 0.29522145 0.17885698 -0.063073635 -0.21270339
0.054364923 0.106528 0.22159596 -0.059596475 -0.09472941 -0.10399352 0.026020313 0.14387086
0.044821296 0.108050786 -0.24060053 -0.25430185 0.11661228 -0.3389306 0.6969023 -0.3035708
0.6462027 -0.05594981 0.4043772 0.23893099 -0.3056151 -0.008293504 -0.5113237 0.30587035
0.28442115 0.43149844 -0.31785384 0.15722613 -0.09798873 -0.45317763 0.31481984 0.28131753
0.010225168 -0.33237806 -0.026796425 0.2452029 0.1508011 0.4069818 -0.15472236 -0.026108516
0.074586935 -0.79313123 -0.34077254 0.39677408 -0.5005807 0.15852493 -0.14797325 0.15637992
0.1199135 -0.27757904 0.12906517 0.046239913 -0.2785764 -0.6017292 -0.3263105 -1.3572372
0.35694453 -0.64701265 0.12433043 0.43997186 -0.10510571 -0.08196502 0.21679449 0.030324416
-0.33476454 -0.15724096 -0.19458275 -0.028937338 -0.54002684 0.4448089 0.1631042 -0.039820075
0.14179134 -0.4843379 0.12873255 0.25497016 0.13239057 -0.08354997 -0.45446527 -0.0007711423
-0.08843384 -0.50510365 0.4544373 -0.16633663 -0.1934663 -0.40916297 -0.3205333 -0.5153451
0.26095915 0.22750703 -1.2305362 0.37330195 0.05314234 0.0690208 0.27922657 -0.31668696
0.12313893 0.25299728 -0.020605506 -0.13308436 -0.443382 -0.26885396 0.18419194 0.2154024
-0.59324235 -0.4208388 0.33958897 0.2807717 0.3112094 -0.17675915 0.08173876 -0.11319882
0.5170946 -0.65926135 -0.83666474 0.43373477 -0.39603856 0.31920698 0.10535814 0.12928942
0.36383063 0.25580168 -0.3026823 -0.3572398 0.4182604 0.008396104 0.5043089 0.032806143
0.3764358 0.30887508 0.57478994 -0.19424985 0.2637953 0.13369551 -0.1596264 -0.3621524
-0.19732334 -0.09247871 0.3988669 0.7379295 -0.27015752 0.13575268 -0.06663011 0.09631289
-0.41505152 -0.13620667 -0.14050385 -0.294954 -0.71880454 -0.13993584 -0.078348584 -0.014834648
00000000: 8e20 7abe d48a 763e d20a f13e 8bd4 33bf
00000010: 640a e5be 23bf b33e cd54 6a3e 165e 123e
00000020: 281f 5e3d 6f99 64be 3e67 9fbe 6c84 32be
00000030: dbac 3cbe 59be 05be 4956 98be 68af 49bf
00000040: c17e 1dbf 98bb 6abf 529d c3be a226 aabd
00000050: 303a 85be ef1f 4f3e 2779 aa3d f548 cc3e
00000060: 8462 97be 8dee 51be 6f9b fa3e 8ac8 143e
00000070: fec2 c1be c60c bc3d 5245 3d3e b69d 0bbe
00000080: d12b 993c 7797 16bf 2254 2dbe 4a02 393e
00000090: 267d 57bf 86b2 10be 6350 a93e a399 833d
000000a0: 6467 833e f5d0 023f ee67 70be 27ed f43e
000000b0: 2de6 b83d 8a42 dbbe d63c ad3d 3b63 ba3d
000000c0: e95e 823e 0a28 0abf c39e 873d 0009 323e
000000d0: 9a2c 083e 3393 9d3e 6312 62bd 063e 7a3e
000000e0: 57d5 97be dc38 83be 4b3f 43bf 4d17 be3d
000000f0: 5bdb abbb d335 d3bd 6f2d bebe efdf 15bf
00000100: 1e7a c0be 054e cebe b239 54bd 4e29 5c3e
00000110: d82d dbbd f8e2 9cbe 6bb7 473e 3e0a 603e
00000120: 086e 383e 7f32 9bbc 06c5 a8be a56e 3a3d
00000130: fdfe 9bbe 2c8d 1a3d f5ef 64be 3280 b1be
00000140: b8e1 15be 4ebc b9bd ceb5 6abe b2a8 01bf
00000150: 39b4 0dbe 3aaf ad3d e1f7 ab3e 6975 12be
00000160: dc1d a6be debd d53d 1692 9abe 2f9e 39bc
00000170: 7d62 e0be 47f9 a83e 4d29 09bf ee37 903e
00000180: bc6b ffbe 58c2 063e 84b2 fb3e 52f0 df3c
00000190: 4427 973e 4926 373e c02c 81bd ebce 59be
000001a0: c1ad 5e3d 5a2b da3d 0dea 623e 6f1b 74bd
000001b0: 7e01 c2bd 8efa d4bd 8d28 d53c e252 133e
000001c0: 8996 373d bb49 dd3d fc5f 76be da33 82be
000001d0: 6bd2 ee3d 5088 adbe 3068 323f a26d 9bbe
000001e0: 8a6d 253f a12b 65bd 870a cf3e 53aa 743e
000001f0: 9579 9cbe 7ae1 07bc 1ce6 02bf 0a9b 9c3e
00000200: a69f 913e 5ded dc3e bdbd a2be e3ff 203e
00000210: 51ae c8bd e606 e8be 1130 a13e da08 903e
00000220: 7787 273c 752d aabe 2d84 dbbc 7816 7b3e
00000230: 9b6b 1a3e eb5f d03e 8a6f 1ebe 87e1 d5bc
00000240: 09c1 983d a60a 4bbf bd79 aebe f925 cb3e
00000250: 0f26 00bf 5c54 223e 4d86 17be 0f22 203e
00000260: 3695 f53d d71e 8ebe a929 043e 1066 3d3d
00000270: 91a1 8ebe ed0a 1abf 2b12 a7be f3b9 adbf
00000280: 6fc1 b63e 9fa2 25bf f4a0 fe3d fe43 e13e
00000290: aa41 d7bd 47dd a7bd 60ff 5d3e e96a f83c
000002a0: 4266 abbe c603 21be b340 47be ff0d edbc
000002b0: 333f 0abf febd e33e ca04 273e 601a 23bd
000002c0: c031 113e 23fb f7be 77d2 033e 738b 823e
000002d0: 6591 073e 3f1c abbd acaf e8be 7c26 4aba
000002e0: cd1c b5bd 794e 01bf 01ac e83e 2654 2abe
000002f0: 081c 46be cf7d d1be f11c a4be a8ed 03bf
00000300: 709c 853e 9af7 683e 3682 9dbf 6f21 bf3e
00000310: c8ab 593d c75a 8d3d c9f6 8e3e cb24 a2be
00000320: 4330 fc3d dc88 813e e1cc a8bc 4447 08be
00000330: f702 e3be 3aa7 89be d09c 3c3e 7292 5c3e
00000340: bbde 17bf 2f78 d7be 9bde ad3e 4fc1 8f3e
00000350: d756 9f3e 5a00 35be a766 a73d c8d4 e7bd
00000360: 5060 043f 5ac5 28bf a92f 56bf 7c12 de3e
00000370: 91c5 cabe 196f a33e 02c6 d73d 7264 043e
00000380: 0248 ba3e 70f8 823e 2df9 9abe 23e8 b6be
00000390: 3a26 d63e d08f 093c 631a 013f bc5f 063d
000003a0: 31bc c03e e024 9e3e 6f25 133f 6fe9 46be
000003b0: 2d10 873e 7ae7 083e 1a75 23be 0a6c b9be
000003c0: 210f 4abe 7a65 bdbd 4838 cc3e f3e8 3c3f
000003d0: 1652 8abe c002 0b3e 5e75 88bd b13f c53d
000003e0: a281 d4be c379 0bbe 3ee0 0fbe 3604 97be
000003f0: 9303 38bf 574b 0fbe 3975 a0bd 060d 73bc
