deployment/bionicleg_model2.tflite (tflite, 5536 bytes, 5 tensors)

dense_109/bias f4 [25]
00000000: d45f 993f b60f 9c3f e6fe 963f 01cb c7bd
00000010: 9d62 903f ae61 bf3f e622 6a3f 31ce a53f
00000020: a229 a53f 4a83 853f 0561 86be b309 af3f
00000030: 59e8 a23f de19 a83f 08a3 9b3f eeb2 ab3f
00000040: b3ae 9b3f 4dbe 4dbe 980b a83f 9e84 58bd
00000050: c626 46be d532 a63f e1cc 4fbf 5a70 2abe
00000060: a58f 9a3f
1.198237 1.2192295 1.1796539 -0.09755517 1.1280094 1.4951684 0.914595 1.295355
1.290333 1.0430691 -0.26245895 1.3674835 1.2727157 1.3132894 1.2159128 1.341398
1.2162689 -0.20092125 1.3128538 -0.05286085 -0.19350728 1.2984263 -0.81171995 -0.16644421
1.2075087

dense_108/bias f4 [25]
00000000: 1117 ec3f 49af 00be f9d5 583e 6c72 35bf
00000010: a409 75be dbba 513e 3c2b 963e 7613 183f
00000020: 2ffc 403f cd82 adbe 474c 5f3e e3e0 49be
00000030: 1c14 4bbf 7d67 d2be 6fe2 22bf deb3 383f
00000040: 9b5c 763e ccad b1bd cfa8 5e3e 8ca9 b43d
00000050: 53ea d13e 5e06 17bf 853d 123f 3f21 9e3e
00000060: 0499 143f
1.8444539 -0.12566866 0.21175374 -0.7087772 -0.23929459 0.20481436 0.2932986 0.59404695
0.753848 -0.33888856 0.21806441 -0.19714694 -0.7932756 -0.4109458 -0.6362676 0.72149456
0.24058764 -0.08675727 0.21744083 0.08821401 0.40999088 -0.5899409 0.5712512 0.3088474
0.58045983

sequential_24/dense_108/MatMul f4 [25, 6]
00000000: 4a28 a3be aa1e 14be ee1a 4f3e 3b0f 963d
00000010: c2ba c4bd bac2 c13e d1c1 0040 238c debd
00000020: b024 1fbe 624a 30bd b33a f43d ec9d 6dbd
00000030: 1671 8bbe 508d b4be 3b83 933d eaeb 0f3f
00000040: 6044 1b3e 9155 6dbc d6c9 84bf f508 45bf
00000050: fc71 ecbe d3b5 0b3e b619 4a3e 14f7 8cbe
00000060: 4ce2 223d 3f44 3e3e 4b49 973a e0cf a9bd
00000070: 26ec 893d 8467 d9be a5a6 6a3e dcfd 9c3e
00000080: 1c69 b7be 3cbf 7b3f e86e 57be 43aa dc3e
00000090: 03b6 7abe ccd2 203f 8104 3c3e 79c1 d5be
000000a0: b92f 9a3e 8500 053e 39b5 6fbe 09f8 ab3f
000000b0: 16aa 6abe 7f44 c83d eab3 953c fa24 cb3d
000000c0: c29d 84be f242 a03c 1404 913e d9a7 16be
000000d0: 866e e5be bdcc 013f 701e 953f 45a9 893e
000000e0: 3bef ddbe 49c2 bd3c 3648 de3e 3be1 6bbd
000000f0: 1c50 09bf a20a 963d 37d0 203e a4cd e53c
00000100: c3fa cbbe c685 913c 4a00 4f3f 385b 373c
00000110: 251a bf3e 76c0 ed3e bc42 8abe dddd b7bd
00000120: aef8 20be 63f1 4e3e 49b3 87be 869e 913e
00000130: 64d4 0ebd 12e7 c63e f01a 09be 75fe aebd
00000140: e1c6 cd3d 5463 03bd 7b99 53be e143 c73e
00000150: 521b af3d 84b2 89bc f983 92be 59b3 ea3c
00000160: ea1f 17bd 5e6f 363f 69ee 9a3e dcf6 903e
00000170: 5573 c9be 75a6 91be 2b18 7ebd f76a 1abd
00000180: 0679 afbe 8989 83be ea2f 813e a9c9 b6be
00000190: ce89 813c d48e 4dbe 44b5 83bd 313a b7be
000001a0: 7978 073d 3cef 743e d1a6 3cbe 551f 44be
000001b0: beda 59be 0ce2 c7bd dadd 2b3e cd39 7fbd
000001c0: 91f8 243f 6e44 9a3d 9438 853e 4f9e 883d
000001d0: 3b85 fa3e d49c 0f3f a964 92be ae4d 28be
000001e0: 0b36 bdbe cf73 7ebe 3c74 543e 2dac 51bf
000001f0: 40f5 ecbe 2230 a43e 29f9 ee3e f5fe 833e
00000200: db67 d6be ca7f 4b3d d0fc 8cbd d3d6 213f
00000210: 5233 edbd 39f6 563e 28df 0c3e ef1e 393e
00000220: 0c51 69be 2697 26bf d2f1 6abf 094e 0a3e
00000230: 8ef6 533e 082c 363c af4e f8be 6565 d83c
00000240: c2a5 9c3e 6abb 2b3c 61fd ccbe 84d5 ebbd
00000250: 329e 853d 44bb 463e
-0.31866676 -0.14464822 0.20225117 0.07327124 -0.09605934 0.37843877 2.0118296 -0.10866573
-0.15541339 -0.043039687 0.119252585 -0.058011934 -0.27234715 -0.35264063 0.072027646 0.5621935
0.15162802 -0.014485733 -1.0374095 -0.7696679 -0.46180713 0.13643579 0.1973637 -0.27532256
0.039766595 0.18580721 0.0011542229 -0.08291602 0.06734495 -0.4246179 0.22915132 0.3066243
-0.3582238 0.98338675 -0.21038401 0.4309865 -0.24483494 0.6282165 0.18361093 -0.4174917
0.30114534 0.1298848 -0.23408975 1.3435069 -0.22916445 0.097786896 0.018274266 0.09919162
-0.2590161 0.019563172 0.28323424 -0.14712466 -0.44810885 0.5070303 1.1649914 0.26886955
-0.4334658 0.023163931 0.43414468 -0.057587843 -0.5363786 0.07326247 0.15704428 0.028052159
-0.39839754 0.017763983 0.80859816 0.011191182 0.37324634 0.464359 -0.2700404 -0.08977864
-0.15719864 0.20209269 -0.2650397 0.28441256 -0.03487052 0.38848168 -0.13389182 -0.085446276
0.10047699 -0.03207715 -0.20664017 0.38918975 0.08550133 -0.016808756 -0.28616312 0.028649973
-0.03689567 0.7126368 0.30260018 0.2831334 -0.39345804 -0.2844731 -0.062034767 -0.037699666
-0.3427202 -0.25690868 0.25231868 -0.3570073 0.01581278 -0.20074016 -0.06431058 -0.35786584
0.033073876 0.23919386 -0.1842301 -0.19152577 -0.2127485 -0.09759912 0.16783848 -0.062310982
0.6444178 0.07532583 0.26019728 0.0667082 0.48929772 0.56098676 -0.28592423 -0.16435882
-0.36955294 -0.24848865 0.20747465 -0.81903344 -0.4628086 0.32067972 0.4667447 0.25780454
-0.4187611 0.049682416 -0.06884158 0.6321842 -0.11582054 0.20992364 0.13757002 0.18078206
-0.22784823 -0.65074384 -0.9177524 0.1350633 0.20699522 0.011118896 -0.4849753 0.026415536
0.30595213 0.010481695 -0.40037063 -0.11515334 0.06524314 0.19407374

sequential_24/dense_109/MatMul f4 [25, 25]
00000000: 367b 423d d2c1 8f3e 4bff 463d 7c52 cd3e
00000010: 88ab 3dbf 3452 ce3e 8023 033e 55a4 c3bd
00000020: e916 9ebd 8b98 d53e 4599 96be 321c c33d
00000030: f302 843d 828a 3c3d 4bef 843e 7e44 c53d
00000040: 18ef 36bf 6942 b13f 8960 823e 1c3f cb3e
00000050: 4651 ccbe 06d6 483e e801 08bf bca6 a53c
00000060: 9835 5dbc 95cb f83d 7839 29be 4c0b 0cbe
00000070: f783 3a3f 492b 7abf 4632 3d3e 139c 843d
00000080: 8e60 c43e f33e 173e 3c17 833e 485a 11be
00000090: b8f8 f13e 36a2 a53e dcfe 1c3f a088 d03d
000000a0: 7839 803d 01e1 73bf 9d5c c83f 2fbf 243e
000000b0: ed05 4b3e c729 c9be 92fd 283e 7489 2dbf
000000c0: 32a4 13be 94aa 853e d75e 9bbd 2929 3e3e
000000d0: 91f4 a63d 6dc4 493f b8fd 2cbf c45e d33d
000000e0: ed52 a63e 24df d2bc d909 e83e 5316 453e
000000f0: 29ce b8be 17ea 023f de52 4ebd c57f b23e
00000100: 53b8 ef3c 0390 073e 5f7f fabe 626b b73f
00000110: f6e5 613d 4fc8 933e 65b6 f3bd 903c 343e
00000120: 8cea aabe 9ff2 bcbe 14fb 8b3e 27da 58be
00000130: 3dda 5f3e 8b95 43be ef59 2bbe bf8a 92be
00000140: c349 d2be a165 64bd f8a9 35bd e795 4abe
00000150: 3e56 333e 8158 59bc 856b 5fbe df3a 02be
00000160: 262d aebe 0068 b7be f9a5 78be 3b70 eabc
00000170: b29d ec3d 64bc 8d3d 5594 f1bd cc61 413e
00000180: 55c6 f9bd e4a2 bb3d 5300 26be add9 f9bd
00000190: 3ab0 9cbe fc2c 7ebe 485a 013f 0acc e03e
000001a0: 56cd 093f dae9 c33c 03c1 2fbd 702a 8d3d
000001b0: 0d3d 79bf 4030 10be bc27 72bd 79f0 8abe
000001c0: 8c09 b13d 4a1b 0cbd 35c3 f43e be8e c4bf
000001d0: 3f37 3dbf 540a d23f 3004 3e3e f011 623e
000001e0: f763 22bf 7ae0 83bd 16d8 a1bd 4f59 513e
000001f0: d43d 30bd 91f0 ce3d 70ce 343e 1cc3 203e
00000200: 6ec6 3d3f 65c1 75bf 1f60 f63d 5e7f 52bb
00000210: 985c ca3e f8fb e23b 863c b03d 8356 65be
00000220: e994 1fbe 8ac2 c0bb 8044 0c3f 9c97 20be
00000230: 40fc 9fbc 8f8a 81bf 0d24 733f f9c4 75be
00000240: 85ac f8bd 8977 36be d241 273e 50cb 84bf
00000250: 2d48 70be b8d9 95bc b9d6 1dbe 9164 99be
00000260: 650e abbf 8823 823f 2d3b b7bf 1628 1bbe
00000270: 13a8 9ebe 5ea2 233d b2a0 d73f 29e1 80be
00000280: 278f 54bf aeac 74b9 4152 193d 28b8 fbbe
00000290: 2820 36be d9d6 3e3f 2c5e 913d 9be2 363e
000002a0: d520 f9be 0ad1 85be 7728 80bf 412d 413e
000002b0: 2936 f7be a8e6 8ebf 393e 103f c586 c83e
000002c0: d90f af3d 0b9a 58bb b000 293f 6e9e 51bf
000002d0: 42d5 df3d cf2e 243e de6b c8bd 08ce 123d
000002e0: a698 623e dfb9 bfbd 9f08 b8bd 16ab 48bb
000002f0: b955 033e 57dd 553e 090d 583d 6303 6bbf
00000300: 8f84 c93f 53ed 3e3e d9ca 033f d822 88be
00000310: d928 3f3d b956 f8bc 66f4 98be 3a4a 843c
00000320: f82a f23d 4e17 1b3e 71a1 a8bc 4f7c ec3e
00000330: 06f0 1abf a3f5 013e 1675 013e 3e85 c43d
00000340: 5528 1e3e 30b3 683c 8942 97be d1bc f43e
00000350: 276e 803d d25f ca3e 9f37 5abe 98f8 853e
00000360: cf92 02bf c4a6 d33f cff2 863e 68e3 533c
00000370: 78f7 383d 8acf 86bd 4b79 13be bc6e 4dbe
00000380: 7677 9abc 5b27 14be 66e5 c4bb fbfb 93bf
00000390: b19c d13d 8303 bbbf e728 a9be 11ca 8dbd
000003a0: abfc 9cbe f866 4f3f 53ec 8bbe c47a 27be
000003b0: 05f3 92be 00f1 75be 8e92 503e 7184 7e3c
000003c0: aeff ad3f c041 a3bf 68b8 083f 4123 b83d
000003d0: 8e1c e73e cad0 8d3d 7c9b 3cbf d63c 15bf
000003e0: 8a30 c9be 77fd 343d 9e57 00bd f092 a3be
000003f0: 9095 4fbc 8cc6 7f3e df40 93bd a57f 82be
0.047480784 0.2807756 0.04858331 0.40101993 -0.7408986 0.4029709 0.12806511 -0.09552828
-0.077192135 0.41717944 -0.2941381 0.09526862 0.06445875 0.04603053 0.25963816 0.096322045
-0.7145858 1.3848392 0.25464275 0.39696586 -0.39905757 0.19612893 -0.5312791 0.020221107
-0.013501547 0.12148205 -0.16525829 -0.13676184 0.7285761 -0.977223 0.18476209 0.06475081
0.38354915 0.14770107 0.25603664 -0.14194596 0.4726007 0.3235032 0.61326385 0.10182309
0.06260961 -0.95265204 1.5653263 0.16088556 0.1982648 -0.39289686 0.1650298 -0.6778786
-0.14418104 0.26106703 -0.07586449 0.18570389 0.08152116 0.78815347 -0.67574644 0.103208095
0.32485142 -0.025741167 0.45320013 0.19246797 -0.36094788 0.5113844 -0.050371997 0.34863105
0.029262697 0.1323853 -0.489253 1.4329646 0.05515095 0.2886376 -0.11900023 0.17601228
-0.3338207 -0.36903855 0.27339995 -0.21176969 0.21860595 -0.19100015 -0.16733526 -0.2862148
-0.410719 -0.055760983 -0.044351548 -0.19783746 0.17513368 -0.01326573 -0.21818359 -0.1271777
-0.3401882 -0.35821533 -0.24282064 -0.028617969 0.115535155 0.06920698 -0.1179587 0.18884963
-0.12196032 0.09161928 -0.16211061 -0.121997215 -0.306032 -0.24821848 0.50528383 0.4390567
0.5382894 0.02391522 -0.04290868 0.0689286 -0.9735878 -0.14080906 -0.059119925 -0.2713659
0.08644399 -0.034205712 0.4780518 -1.5356061 -0.73912424 1.6409402 0.18556285 0.22077155
-0.63433784 -0.064393 -0.07902543 0.20444225 -0.043027714 0.10104478 0.17656875 0.15699428
0.74130905 -0.9599822 0.120300524 -0.0032119374 0.39523768 0.0069270097 0.08605294 -0.22396283
-0.15584148 -0.005882566 0.5479202 -0.15682834 -0.019529462 -1.012041 0.94976884 -0.2400092
-0.121422805 -0.17819037 0.16333702 -1.0374546 -0.23465033 -0.018292293 -0.15413941 -0.2995954
-1.3363768 1.0167093 -1.4314934 -0.1515201 -0.30987605 0.039949767 1.6845915 -0.25171784
-0.83030933 -0.00023333982 0.03743196 -0.49163938 -0.17785704 0.7454658 0.0709804 0.1785988
-0.4865786 -0.26136047 -1.0012349 0.18864919 -0.48283508 -1.1164141 0.56344944 0.3916532
0.085479446 -0.00330508 0.66016674 -0.8188237 0.109293476 0.16033481 -0.09786199 0.035841018
0.22128543 -0.09361624 -0.08986019 -0.0030619553 0.1282567 0.20885216 0.052746806 -0.9180204
1.5743579 0.1864522 0.51481396 -0.26589084 0.046669815 -0.03031479 -0.2987396 0.016148675
0.11824602 0.15145609 -0.020584794 0.4618859 -0.60522497 0.12691359 0.12642321 0.095957264
0.15445073 0.014202878 -0.2954295 0.47800305 0.0627101 0.3952623 -0.2131028 0.26166224
-0.5100526 1.6535268 0.26357123 0.012932636 0.04515788 -0.06582554 -0.14401738 -0.20061773
-0.018855792 -0.14468138 -0.0060087917 -1.1561273 0.10234965 -1.4610447 -0.3303902 -0.06923307
-0.3066152 0.8101649 -0.2732874 -0.16355425 -0.28701034 -0.24017715 0.20368406 0.015534506
1.3593652 -1.275444 0.5340638 0.08991099 0.45138973 0.06924589 -0.7367475 -0.58295953
-0.39294845 0.044187035 -0.03133356 -0.31948042 -0.012669936 0.24978083 -0.071901076 -0.2548801

sequential_24/dense_110/MatMul f4 [1, 25]
00000000: 48ca 023f d788 ea3e 08e0 473f 000f 01be
00000010: 53a3 0240 2f9b 143f 0959 1640 a6cd 1a3f
00000020: 75b8 5a3f dbce 1040 accd dbbc d002 fa3e
00000030: 120c a93e 547c 293f ed9e 5a3f 31fb b63e
00000040: 38e5 063f 7c56 d83a bc80 e23e 0504 40be
00000050: 15b4 66be 2d73 443f c6b6 25c0 1ac4 f9bb
00000060: 0e05 333f
0.51089907 0.45807526 0.7807622 -0.12603378 2.0412185 0.5804929 2.3491843 0.60470045
0.8543771 2.2626255 -0.02683147 0.4883027 0.3301702 0.66205335 0.8539875 0.3573852
0.5269351 0.0016505267 0.44238842 -0.18751533 -0.22529633 0.76738244 -2.5892806 -0.007622254
0.6992959
