deployment/bionicleg_model3.tflite (tflite, 15792 bytes, 5 tensors)

dense_4/bias f4 [100]
-0.038885195 -0.06754308 -0.050308667 -0.051014412 0.8155816 0.7507078 -0.034369707 -0.02934161
-0.042210568 -0.03631174 0.51099604 0.7625383 0.727024 -0.051626015 0.81477016 0.8258606
-0.042280316 -2.7088738e-05 -0.049522027 -0.036548488 0.82416576 0.7870399 0.7663812 0.7131661
-0.026846228 -0.045685165 -0.04537747 0.7841122 -0.08264288 0.8207979 0.79614353 0.7688569
-0.047428448 -0.27464676 0.7903888 -0.046919912 0.79050434 -0.024122301 0.8348418 -0.054072898
-0.026626298 0.8068571 0.81916106 -0.041579682 0.835029 0.8337854 0.82878226 -0.029171098
0.80531394 -0.01177002 0.81839126 0.82330006 -0.041337237 -0.079732895 -0.076041214 0.8083945
0.8071173 0.70485663 0.8140961 -0.0632947 0.2703806 0.7980873 0.80194974 0.8287755
-0.07055918 -0.031053228 0.66274464 0.8207923 0.7371656 0.45566037 -0.05517322 0.8082354
-0.062994145 -0.047508728 0.8496212 -0.029063504 -0.24008028 0.82326376 0.67271286 -0.07392502
0.83216345 0.49043375 -0.04799402 -0.053680297 0.8108351 0.68143547 -0.047588192 -0.05083012
-0.062306963 0.83496016 -0.06391389 0.81996953 -0.07093041 0.77295524 -0.05006643 0.8259072
0.7957684 -0.06432735 0.84643334 -0.106682755
00000000: 1546 1fbd 0754 8abd 7610 4ebd 7df4 50bd
00000010: f5c9 503f 632e 403f 40c7 0cbd d15d f0bc
00000020: fde4 2cbd 9ebb 14bd a3d0 023f b635 433f
00000030: 3f1e 3a3f cd75 53bd c794 503f 9a6b 533f
00000040: 202e 2dbd 9f3c e3b7 9cd7 4abd deb3 15bd
00000050: 87fc 523f 727b 493f 8f31 443f 0e92 363f
00000060: 9fec dbbc 5e20 3bbd badd 39bd 94bb 483f
00000070: ac40 a9bd d01f 523f 10d0 4b3f ced3 443f
00000080: 5544 42bd 809e 8cbe ec56 4a3f 182f 40bd
00000090: 7e5e 4a3f 229c c5bc 31b8 553f 8b7b 5dbd
000000a0: 651f dabc 308e 4e3f 8ab4 513f 754f 2abd
000000b0: 76c4 553f f672 553f 132b 543f 3af8 eebc
000000c0: 0e29 4e3f 0bd7 40bc 1782 513f cbc3 523f
000000d0: 3c51 29bd 004b a3bd 7fbb 9bbd f1f2 4e3f
000000e0: 3d9f 4e3f 7c71 343f 9a68 503f a7a0 81bd
000000f0: 536f 8a3e 734f 4c3f 944c 4d3f a22a 543f
00000100: 5581 90bd 5763 febc a2a9 293f 721f 523f
00000110: e2b6 3c3f 514c e93e 50fd 61bd 84e8 4e3f
00000120: 1303 81bd 8398 42bd c680 593f 9616 eebc
00000130: 9bd7 75be 6ac1 523f e936 2c3f 0066 97bd
00000140: aa08 553f 221a fb3e 6195 44bd dfdf 5bbd
00000150: e492 4f3f 8e72 2e3f d6eb 42bd 3e33 50bd
00000160: 9635 7fbd f3bf 553f 49e5 82bd 86e9 513f
00000170: f643 91bd 65e0 453f 7512 4dbd a76e 533f
00000180: 7ab7 4b3f 0fbe 83bd dbaf 583f 7d7c dabd

dense_3/bias f4 [100]
0.0 -1.7165436e-26 -0.05783187 -0.05559044 0.0 0.0 -2.0800334e-07 1.942127e-12
0.0 -0.055432092 -0.016892299 0.04240126 0.035770144 -0.021316787 0.068236426 0.15335996
0.0 -0.04287871 0.002061895 0.0 0.0 0.0 0.005387525 0.11992289
-3.6048423e-06 0.0 0.0 0.0 0.0 0.021904862 -0.10276899 0.0
0.010851729 -1.8137158e-05 -0.025358252 0.0 -0.019693116 0.0 0.0 0.0
0.001971868 0.0 0.0 0.0057679797 -0.078520454 0.012565899 -0.0010630449 0.059219263
-0.077084675 0.024427827 -0.060956545 0.0 -2.686305e-06 0.0 0.0 0.0
-0.050080325 -0.05002616 -0.0831589 -0.047060892 0.046691626 0.0 0.13462988 -0.04495002
-0.056321695 0.082198404 0.0 0.0 0.0 0.30711207 -0.06976604 0.0038580298
0.0 -0.01751719 0.0 -0.038814716 0.0 0.20241599 0.0 0.0
0.0 0.11448694 -5.651443e-05 0.054615825 3.551173e-24 0.10168424 0.0 0.0
0.0 -1.1758427e-13 -0.0053296913 0.036947355 -0.0010996731 -0.020111429 -0.016873986 0.10942619
0.0 -0.06414327 0.034428924 0.00062876876
00000000: 0000 0000 8dff a994 1ce1 6cbd cdb2 63bd
00000010: 0000 0000 0000 0000 8657 5fb4 40aa 082c
00000020: 0000 0000 c30c 63bd b861 8abc f2ac 2d3d
00000030: b783 123d 8ba0 aebc 8abf 8b3d 650a 1d3e
00000040: 0000 0000 96a1 2fbd dc20 073b 0000 0000
00000050: 0000 0000 0000 0000 d689 b03b 229a f53d
00000060: b8ea 71b6 0000 0000 0000 0000 0000 0000
00000070: 0000 0000 d371 b33c 8c78 d2bd 0000 0000
00000080: 73cb 313c 4025 98b7 1cbc cfbc 0000 0000
00000090: 7553 a1bc 0000 0000 0000 0000 0000 0000
000000a0: 753a 013b 0000 0000 0000 0000 5201 bd3b
000000b0: 55cf a0bd 33e1 4d3c de55 8bba e68f 723d
000000c0: 92de 9dbd de1c c83c 92ad 79bd 0000 0000
000000d0: 5e46 34b6 0000 0000 0000 0000 0000 0000
000000e0: 0721 4dbd 3be8 4cbd 374f aabd ecc2 40bd
000000f0: b83f 3f3d 0000 0000 6adc 093e 831d 38bd
00000100: 94b1 66bd a357 a83d 0000 0000 0000 0000
00000110: 0000 0000 cb3d 9d3e 7fe1 8ebd 00d7 7c3b
00000120: 0000 0000 3680 8fbc 0000 0000 2efc 1ebd
00000130: 0000 0000 2346 4f3e 0000 0000 0000 0000
00000140: 0000 0000 2178 ea3d e809 6db8 d8b4 5f3d
00000150: 1d61 8918 d43f d03d 0000 0000 0000 0000
00000160: 0000 0000 5c63 04aa b1a4 aebb 1c56 173d
00000170: e822 90ba b9c0 a4bc 503b 8abc d71a e03d
00000180: 0000 0000 8c5d 83bd 5805 0d3d f5d3 243a

sequential_1/dense_3/MatMul f4 [100, 6]
0.023741558 0.06450088 0.062352136 0.020413026 0.17551012 -0.05672574 -0.15568948 -0.1735732
-0.13198587 0.030259535 -0.11026265 0.23099606 0.0863749 -0.07898813 0.11398594 -0.10939128
-0.19135262 0.014055972 -0.15106176 -0.035994828 0.0065697823 -0.04025576 0.03967189 -0.2603551
0.0666085 0.08259465 0.06496005 -0.112599656 0.20770524 0.18618168 -0.11401814 0.17014368
0.23267688 0.21286814 -0.14594108 0.10301618 -0.023667082 -0.0022390923 0.014098006 0.10433092
-0.21636616 -0.021019295 -0.11800229 -0.23759635 -0.17180812 0.16935597 -0.007153511 -0.019230053
-0.101494 0.12937017 0.067451015 0.22550113 -0.09595455 -0.04277505 0.087652445 -0.286974
-0.022973774 0.10403822 -0.044083014 0.12629083 -0.24092108 -0.17821488 0.20441979 -0.08696678
-0.072921194 -0.17092037 -0.060912784 0.20799054 0.10362318 -0.15775834 0.08430366 -0.15449902
0.144209 0.088226855 -0.18130048 0.14139512 0.23742889 -0.20665227 -0.0016602896 -0.2450288
-0.09515495 -0.09597079 0.18593514 0.116620444 -0.48400003 0.19869734 -0.32153827 0.085760884
-0.05132998 -0.067701794 0.27360386 0.07737243 -0.296677 0.16383731 -0.16029958 0.35729563
0.14248492 0.14269929 -0.19042602 0.13349818 0.21497826 0.08911319 -0.10345302 -0.26326293
0.02378803 0.0405377 -0.042275846 0.17735612 -0.20464046 0.022969488 -0.13986085 0.06846359
0.22535504 0.24210629 0.09093504 0.11498307 0.1007369 0.04164575 0.1251389 0.0116530955
-0.19788328 0.14499472 0.13489817 0.104021594 0.07251124 0.22279005 -0.0774163 -0.084557846
0.21242781 0.11688982 0.10057609 -0.14949141 -0.18028897 0.18382691 0.09246351 -0.17503498
-0.014451649 0.2334288 0.09556191 0.25122973 0.22556221 -0.08479389 -0.14814283 -0.36240077
-0.11528493 -0.06657713 -0.16396043 -0.01617503 0.038126346 -0.004925865 0.16079237 0.07829784
0.03506832 0.061015323 0.04852222 0.15152068 -0.0041753054 -0.2062614 -0.20955834 -0.04713005
-0.17918615 0.04233937 -0.027525008 -0.16438161 -0.13123146 -0.17833638 0.018750802 0.21524833
0.19738911 0.20503752 0.15701617 0.2126223 -0.18001488 -0.14585385 0.24581708 -0.089373626
-0.19424349 0.21759976 0.25059095 0.1923304 -0.3062597 -0.016266258 -0.17365953 -0.12509644
0.34756312 0.18538806 -0.09600639 0.020482227 -0.05411759 -0.13367283 -0.09250674 -0.0098504275
-0.20088872 0.2489594 0.079703934 -0.10846757 0.08514313 -0.20163241 -0.22522329 -0.1936479
-0.011034508 -0.01841165 0.07626073 0.074286416 0.1543569 0.1931374 -0.21809612 -0.089776166
-0.18105663 -0.10273653 -0.1859873 0.12820326 0.18443064 -0.14236557 0.20035286 0.04051225
-0.11239687 0.0039778147 -0.059698734 0.029897472 -0.13487533 -0.014802292 0.048038438 0.13156374
0.03532891 0.22042792 0.0560015 -0.017353982 -0.090744734 0.14418148 0.086741135 0.23453094
0.18584685 -0.18854415 0.007588744 0.0014231354 -0.11688693 -0.22154678 -0.18176991 0.019845441
-0.055768345 0.24314283 -0.1784046 0.10233449 0.017755212 0.009007808 -0.04640071 -0.2023659
-0.21934676 -0.11682028 -0.0010836422 0.005178854 -0.0834118 0.10183342 -0.011858612 0.18238966
00000000: a87d c23c 0a19 843d f464 7f3d 3839 a73c
00000010: edb8 333e 4059 68bd 106d 1fbe 2cbd 31be
00000020: 4e27 07be d8e2 f73c 62d1 e1bd 3b8a 6c3e
00000030: 53e5 b03d 87c4 a1bd 7671 e93d 8908 e0bd
00000040: f1f1 43be 054b 663c efaf 1abe 506f 13bd
00000050: 5447 d73b 39e3 24bd fe7e 223d 434d 85be
00000060: 0a6a 883d 6227 a93d c609 853d a69a e6bd
00000070: afb0 543e 69a6 3e3e 5882 e9bd 253a 2e3e
00000080: d942 6e3e 1bfa 593e 9471 15be 26fa d23d
00000090: 78e1 c1bc bcbd 12bb 53fb 663c 73ab d53d
000000a0: 178f 5dbe a830 acbc 2fab f1bd 754c 73be
000000b0: 78ee 2fbe a76b 2d3e 0068 eabb 5888 9dbc
000000c0: 16dc cfbd 9d79 043e c223 8a3d c5e9 663e
000000d0: d283 c4bd e434 2fbd 2083 b33d 42ee 92be
000000e0: 7f33 bcbc fe11 d53d 6490 34bd 6252 013e
000000f0: 04b4 76be f67d 36be 6c53 513e a41b b2bd
00000100: b557 95bd c005 2fbe af7f 79bd 79fb 543e
00000110: 6438 d43d 678b 21be 66a7 ac3d fe34 1ebe
00000120: 86ab 133e 48b0 b43d d5a6 39be e2c9 103e
00000130: 8f20 733e a79c 53be 139e d9ba d4e8 7abe
00000140: 99e0 c2bd 558c c4bd c865 3e3e b3d6 ee3d
00000150: dace f7be 5177 4b3e aaa0 a4be 67a3 af3d
00000160: 633f 52bd 3da7 8abd ce15 8c3e 7075 9e3d
00000170: 0ce6 97be f8c4 273e 9325 24be 74ef b63e
00000180: 91e7 113e c31f 123e 0aff 42be bfb3 083e
00000190: 4323 5c3e fa80 b63d 2ddf d3bd 66ca 86be
000001a0: 1ddf c23c dc0a 263d 7029 2dbd d89c 353e
000001b0: 458d 51be 822a bc3c af37 0fbe a436 8c3d
000001c0: 79c3 663e b6ea 773e 263c ba3d 3e7c eb3d
000001d0: 264f ce3d bc94 2a3d 6924 003e a0ec 3e3c
000001e0: eaa1 4abe 7f79 143e bf22 0a3e 4609 d53d
000001f0: c680 943d 1323 643e 708c 9ebd aa2c adbd
00000200: ad86 593e ee63 ef3d d6fa cd3d 4714 19be
00000210: ac9d 38be 1f3d 3c3e 825d bd3d 5f3c 33be
00000220: 9cc6 6cbc f607 6f3e f6b5 c33d 2fa1 803e
00000230: c8f9 663e 6ba8 adbd c1b2 17be 988c b9be
00000240: 811a ecbd 9759 88bd 3ee5 27be 7f81 84bc
00000250: 5f2a 1c3d 2769 a1bb c1a6 243e 9e5a a03d
00000260: cca3 0f3d 34eb 793d 3cbf 463d 3d28 1b3e
00000270: 00d1 88bb 3036 53be 7696 56be 700b 41bd
00000280: 937c 37be 0c6c 2d3d 207c e1bc a753 28be
00000290: 8a61 06be d09d 36be 489b 993c 0f6a 5c3e
000002a0: 5f20 4a3e 5bf5 513e d9c8 203e a9b9 593e
000002b0: d255 38be b65a 15be 79b7 7b3e 8509 b7bd
000002c0: c4e7 46be 79d2 5e3e 754d 803e 43f2 443e
000002d0: 12ce 9cbe d140 85bc ced3 31be 4819 00be
000002e0: cbf3 b13e 5ed6 3d3e 009f c4bd 58ca a73c
000002f0: 68aa 5dbd 88e1 08be 2c74 bdbd b063 21bc
00000300: c6b5 4dbe 37ef 7e3e d13b a33d 3f24 debd
00000310: 855f ae3d ba78 4ebe efa0 66be a34b 46be
00000320: 15ca 34bc 07d4 96bc 962e 9c3d 7a23 983d
00000330: bc0f 1e3e d0c5 453e 9754 5fbe 91dc b7bd
00000340: e966 39be 8867 d2bd 7473 3ebe b747 033e
00000350: 63db 3c3e 48c8 11be 4d29 4d3e 2cf0 253d
00000360: 5530 e6bd 5458 823b a986 74bd 8beb f43c
00000370: c21c 0abe 5085 72bc f4c3 443d a5b8 063e
00000380: 0cb5 103d dbb7 613e d461 653d f029 8ebc
00000390: 60d8 b9bd 4fa4 133e 56a5 b13d e128 703e
000003a0: a34e 3e3e b811 41be 00ab f83b 8088 ba3a
000003b0: 6a62 efbd 29dd 62be e421 3abe e892 a23c
000003c0: 596d 64bd 6ffa 783e b2af 36be bf94 d13d
000003d0: 6173 913c 7c95 133c ac0e 3ebd 0239 4fbe
000003e0: 709c 60be 793f efbd 0009 8eba 60b3 a93b
000003f0: ced3 aabd 0a8e d03d a04a 42bc 5bc4 3a3e

sequential_1/dense_4/MatMul i1 [100, 100] scale=0.017106272 zero_point=0
0.0 0.051318817 -0.08553136 0.08553136 -0.17106272 -0.051318817 0.15395644 -0.119743906
-0.10263763 -0.051318817 0.06842509 -0.17106272 -0.08553136 0.017106272 0.119743906 -0.08553136
0.0 -0.017106272 0.0 0.06842509 0.10263763 0.017106272 -0.13685018 0.06842509
-0.051318817 -0.17106272 0.034212545 -0.17106272 -0.10263763 0.10263763 -0.10263763 -0.017106272
-0.17106272 0.051318817 -0.10263763 0.10263763 0.08553136 -0.17106272 0.034212545 0.051318817
-0.051318817 -0.15395644 -0.119743906 -0.17106272 -0.051318817 -0.17106272 -0.051318817 -0.06842509
-0.13685018 -0.119743906 -0.188169 -0.17106272 0.10263763 0.119743906 0.06842509 -0.15395644
0.17106272 -0.13685018 -0.20527527 -0.08553136 -0.06842509 -0.017106272 -0.051318817 -0.051318817
-0.034212545 0.13685018 0.06842509 0.10263763 -0.034212545 0.051318817 0.034212545 0.06842509
0.10263763 -0.13685018 0.119743906 -0.10263763 -0.119743906 -0.08553136 -0.08553136 0.06842509
0.119743906 0.06842509 -0.17106272 -0.17106272 0.10263763 -0.188169 -0.034212545 0.08553136
-0.119743906 -0.051318817 0.13685018 -0.17106272 -0.15395644 -0.15395644 -0.034212545 -0.08553136
0.08553136 -0.119743906 0.10263763 -0.119743906 -0.06842509 0.08553136 -0.188169 0.034212545
-0.051318817 -0.06842509 -0.034212545 0.119743906 0.10263763 0.0 -0.051318817 -0.08553136
-0.119743906 -0.188169 -0.17106272 -0.20527527 0.10263763 -0.034212545 -0.15395644 -0.051318817
-0.017106272 0.13685018 -0.06842509 0.051318817 0.17106272 -0.23948781 0.034212545 -0.08553136
0.10263763 0.017106272 0.10263763 -0.15395644 0.08553136 0.034212545 -0.017106272 -0.20527527
-0.051318817 -0.20527527 -0.20527527 0.13685018 0.034212545 -0.06842509 -0.08553136 0.06842509
-0.06842509 0.08553136 -0.051318817 -0.017106272 -0.20527527 -0.17106272 -0.188169 0.10263763
-0.119743906 0.0 -0.06842509 0.017106272 -0.10263763 0.051318817 -0.034212545 -0.13685018
-0.15395644 -0.15395644 -0.017106272 -0.06842509 0.051318817 -0.188169 -0.10263763 -0.10263763
-0.10263763 -0.10263763 -0.051318817 0.10263763 0.017106272 -0.119743906 -0.17106272 -0.017106272
0.10263763 -0.10263763 0.08553136 -0.06842509 0.0 0.0 -0.10263763 0.0
0.0 -0.22238153 0.10263763 -0.17106272 -0.06842509 -0.17106272 0.06842509 0.0
0.06842509 -0.017106272 0.13685018 0.034212545 -0.17106272 0.034212545 -0.051318817 -0.15395644
0.08553136 -0.06842509 -0.06842509 0.17106272 0.0 -0.13685018 0.0 0.051318817
-0.051318817 0.051318817 -0.17106272 0.08553136 -0.10263763 0.017106272 0.051318817 -0.13685018
-0.051318817 -0.17106272 -0.08553136 0.017106272 0.017106272 0.119743906 -0.08553136 -0.119743906
0.119743906 -0.08553136 0.13685018 -0.08553136 0.06842509 -0.23948781 -0.06842509 0.17106272
0.08553136 0.051318817 -0.051318817 -0.188169 -0.17106272 -0.15395644 0.10263763 -0.017106272
0.08553136 0.13685018 0.06842509 -0.06842509 0.119743906 -0.051318817 0.034212545 -0.034212545
-0.08553136 -0.119743906 -0.034212545 0.051318817 0.08553136 -0.06842509 -0.10263763 -0.119743906
00000000: 0003 fb05 f6fd 09f9 fafd 04f6 fb01 07fb
00000010: 00ff 0004 0601 f804 fdf6 02f6 fa06 faff
00000020: f603 fa06 05f6 0203 fdf7 f9f6 fdf6 fdfc
00000030: f8f9 f5f6 0607 04f7 0af8 f4fb fcff fdfd
00000040: fe08 0406 fe03 0204 06f8 07fa f9fb fb04
00000050: 0704 f6f6 06f5 fe05 f9fd 08f6 f7f7 fefb
00000060: 05f9 06f9 fc05 f502 fdfc fe07 0600 fdfb
00000070: f9f5 f6f4 06fe f7fd ff08 fc03 0af2 02fb
00000080: 0601 06f7 0502 fff4 fdf4 f408 02fc fb04
00000090: fc05 fdff f4f6 f506 f900 fc01 fa03 fef8
000000a0: f7f7 fffc 03f5 fafa fafa fd06 01f9 f6ff
000000b0: 06fa 05fc 0000 fa00 00f3 06f6 fcf6 0400
000000c0: 04ff 0802 f602 fdf7 05fc fc0a 00f8 0003
000000d0: fd03 f605 fa01 03f8 fdf6 fb01 0107 fbf9
000000e0: 07fb 08fb 04f2 fc0a 0503 fdf5 f6f7 06ff
000000f0: 0508 04fc 07fd 02fe fbf9 fe03 05fc faf9

sequential_1/dense_5/MatMul f4 [1, 100]
0.009599484 -0.024417924 -0.25872996 -0.03839837 0.24339183 0.07053717 -0.0721446 -0.025603091
-0.03831328 -0.07729897 0.6402786 0.116340965 0.13604155 -0.03526954 0.23733553 0.2403637
-0.12502292 -0.056159444 -0.11959413 -0.010456276 0.19853213 0.14056832 0.078172944 0.29885358
-0.11360392 -0.09430076 -0.26421165 0.11413613 -0.16342425 0.28541726 0.15302877 0.10854581
-0.010080367 -0.43080196 0.12766692 -0.056419805 0.10681991 -0.00077028864 0.29615092 -0.14827114
-0.16527507 0.14944473 0.24362198 -0.20080635 0.24213567 0.2520655 0.25963092 -0.0568617
0.1959533 0.0031640944 0.16661383 0.30944005 -0.049272068 -0.062607326 -0.067490466 0.19456655
0.1368857 0.10258275 0.23477505 -0.20143673 1.8859968 0.1515671 0.18090008 0.2570959
-0.118994325 -0.060685076 0.2567127 0.29618543 0.15584697 1.7688215 -0.1715543 0.18957298
-0.15624197 -0.108216174 0.29696274 -0.15162793 -0.6456794 0.29907924 0.31671634 -0.13669473
0.23820443 1.2963781 -0.06250998 -0.091297105 0.16787271 0.20083292 -0.2010833 -0.12141977
-0.20271702 0.27329835 -0.013268543 0.28892237 -0.015131155 0.08530889 -0.1528308 0.2992951
0.16667329 -0.06294711 0.29849148 -0.08309631
00000000: 2747 1d3c 1908 c8bc 4178 84be 9c47 1dbd
00000010: b53b 793e cb75 903d 8cc0 93bd 93bd d1bc
00000020: 63ee 1cbd ec4e 9ebd 4ce9 233f 2c44 ee3d
00000030: 7a4e 0b3e cb76 10bd 1608 733e e721 763e
00000040: 0206 00be 7207 66bd c4ed f4bd cd50 2bbc
00000050: 024c 4b3e 24f1 0f3e 2319 a03d 5603 993e
00000060: 2ca9 e8bd c220 c1bd c046 87be 34c0 e93d
00000070: b058 27be 3622 923e 93b3 1c3e 444d de3d
00000080: 2028 25bc 1392 dcbe 1ebb 023e 7418 67bd
00000090: 66c4 da3d 32ed 49ba 18a1 973e 64d4 17be
000000a0: de3d 29be 0a08 193e 0a78 793e 2ea0 4dbe
000000b0: 6af2 773e bb0e 813e 58ee 843e d0e7 68bd
000000c0: fba7 483e b25c 4f3b d19c 2a3e ed6e 9e3e
000000d0: 82d1 49bd 4538 80bd 7138 8abd 743c 473e
000000e0: c42b 0c3e e816 d23d df68 703e 6e45 4ebe
000000f0: 5868 f13f 6834 1b3e df3d 393e 13a2 833e
00000100: 4cb3 f3bd ea90 78bd d96f 833e 9ea5 973e
00000110: 5996 1f3e be68 e23f eeab 2fbe 6b1f 423e
00000120: e5fd 1fbe 71a0 ddbd 800b 983e 5a44 1bbe
00000130: 3f4b 25bf ea20 993e a528 a23e b4f9 0bbe
00000140: ddeb 733e b8ef a53f 3b05 80bd faf9 babd
00000150: d3e6 2b3e 25a7 4d3e c8e8 4dbe eeaa f8bd
00000160: 0d95 4fbe c3ed 8b3e 4e64 59bc a2ed 933e
00000170: aae8 77bc 6db6 ae3d ad7f 1cbe 353d 993e
00000180: 67ac 2a3e 6aea 80bd e0d3 983e 662e aabd
